models/LinkPredictionNet.51e-CloseByPion200PU.r15.e5.f400.pt (torch, 236483 bytes, 59 tensors)

norm.weight f4 [37]
1.0 1.0 1.0 1.0 1.0 1.0 1.0 1.0
1.0 1.0 1.0 1.0 1.0 1.0 1.0 1.0
1.0 1.0 1.0 1.0 1.0 1.0 1.0 1.0
1.0 1.0 1.0 1.0 1.0 1.0 1.0 1.0
1.0 1.0 1.0 1.0 1.0
00000000: 0000 803f 0000 803f 0000 803f 0000 803f
00000010: 0000 803f 0000 803f 0000 803f 0000 803f
00000020: 0000 803f 0000 803f 0000 803f 0000 803f
00000030: 0000 803f 0000 803f 0000 803f 0000 803f
00000040: 0000 803f 0000 803f 0000 803f 0000 803f
00000050: 0000 803f 0000 803f 0000 803f 0000 803f
00000060: 0000 803f 0000 803f 0000 803f 0000 803f
00000070: 0000 803f 0000 803f 0000 803f 0000 803f
00000080: 0000 803f 0000 803f 0000 803f 0000 803f
00000090: 0000 803f

norm.bias f4 [37]
0.0 0.0 0.0 0.0 0.0 0.0 0.0 0.0
0.0 0.0 0.0 0.0 0.0 0.0 0.0 0.0
0.0 0.0 0.0 0.0 0.0 0.0 0.0 0.0
0.0 0.0 0.0 0.0 0.0 0.0 0.0 0.0
0.0 0.0 0.0 0.0 0.0
00000000: 0000 0000 0000 0000 0000 0000 0000 0000
00000010: 0000 0000 0000 0000 0000 0000 0000 0000
00000020: 0000 0000 0000 0000 0000 0000 0000 0000
00000030: 0000 0000 0000 0000 0000 0000 0000 0000
00000040: 0000 0000 0000 0000 0000 0000 0000 0000
00000050: 0000 0000 0000 0000 0000 0000 0000 0000
00000060: 0000 0000 0000 0000 0000 0000 0000 0000
00000070: 0000 0000 0000 0000 0000 0000 0000 0000
00000080: 0000 0000 0000 0000 0000 0000 0000 0000
00000090: 0000 0000

input_edgeconv.graphconv.nn.convnetwork.0.weight f4 [32, 74]
0.041924212 0.07786695 -0.045520112 0.3915716 -1.6151812 0.2606525 -0.07582758 -0.15366821
-0.0001606421 -0.25386778 -0.72758627 0.05087735 -0.44413945 0.53329813 0.12620777 -0.55144066
-0.37712273 -0.039148185 0.078337915 0.1519375 0.04357856 -0.053190302 0.25936082 0.42979726
-0.67594975 -0.015543202 -0.014093705 0.6313013 0.44168702 -0.123533815 0.09260336 0.29588604
0.061832603 0.04072494 -0.3932864 0.018267225 0.22302961 0.07903457 0.06482299 0.0034985708
0.092898846 3.0543647 0.13644421 -0.3468104 -0.23900385 0.056213614 0.3460316 0.90018576
-0.0041520656 0.37920696 -0.8622113 0.013003313 0.3052744 0.19533613 0.0013887029 0.02402921
0.24253587 -0.2974289 -0.098770395 0.039069135 -0.8427483 0.53356093 -0.030585516 -0.03505623
-0.5051334 -0.29949185 -0.028116757 -0.012507623 -0.24656078 -0.0830217 -0.16316167 0.30642053
-0.07454007 -0.34116635 -0.14981614 0.0066344077 0.0928843 0.06864893 -1.1252608 -0.21437047
-0.16577403 -0.15320456 -0.08794077 0.22864595 0.41249162 0.096097626 0.13485838 -0.0050429865
0.1334917 -0.26340896 -0.3217024 0.075752966 -0.05844593 -0.14108343 0.012412129 -0.097980894
-0.15345863 -0.8559999 -0.62008107 -0.0352131 0.0737146 0.26117843 0.21242325 -0.0044930866
-0.034858733 -0.59614795 0.026026959 -0.10568953 0.5868805 0.0152711 0.014427536 0.09759399
-0.438164 -0.91510385 -0.28196162 0.17131644 -0.07986859 0.15553707 0.023624664 -0.100684784
-0.109476075 -0.17109157 -0.4695801 0.09206428 0.03835873 -0.41843733 -0.07392206 -0.28369543
0.21356635 0.0044116387 0.0912813 0.006441379 -0.10468597 0.054291125 0.074926816 0.056196127
-0.5399302 -0.40132993 0.70092684 0.73892534 -0.5199559 -0.3812842 0.6431338 -0.07060095
0.15469629 -0.5141024 -0.032391384 -0.043775074 0.060403213 0.00992585 -0.01678495 0.033777196
-1.1124008 0.26161036 -0.37839127 -0.44808707 -0.035753846 0.21798147 0.020946115 0.13598512
0.1375863 -1.0074029 0.014041357 0.26850265 -0.015959406 0.062056802 0.00066855643 -0.06498995
-0.08777714 -0.04736968 0.02644672 0.07818386 0.46078762 0.5105168 0.51100725 -0.68614846
-0.6605446 0.569382 0.66783345 -0.3943212 -0.0586979 0.029936092 0.33545288 -0.031187987
-0.04446329 -0.11928362 0.58999217 0.8258669 0.4086405 -1.2452397 0.0069850604 0.26646364
-0.12099939 -0.046001617 -0.30746827 -0.3312667 -0.49009892 -0.28237474 1.0529307 0.14658853
-0.078995444 -0.49297 0.18136483 0.06617369 0.11366826 0.017271874 0.20907629 0.029046759
0.11096459 0.056893017 -0.34486 -0.29000717 0.5108401 0.76173675 -0.4254321 -0.34896702
0.15199083 0.15181927 -0.050592855 -0.12455888 -0.10339231 0.007410312 0.008646319 -0.07989096
0.09287535 0.061231326 -4.2031927 -0.52365834 0.12390989 0.060144145 0.004768135 -0.22907233
-0.4547978 -0.4370032 -0.05497769 0.8342069 -0.27259368 0.0421413 -0.004114241 0.023913655
0.042870503 0.058431637 0.023790626 0.08926675 -0.007817532 0.47186646 0.028086457 0.23764688
0.2760341 -0.027006513 0.09218041 0.23095846 0.1541037 0.6350245 0.12567432 0.03890592
00000000: b9b8 2b3d b578 9f3d 4c73 3abd 137c c83e
00000010: 42be cebf 3f74 853e 7e4b 9bbd 335b 1dbe
00000020: 0972 28b9 f5fa 81be 1843 3abf c564 503d
00000030: 3f66 e3be 3a86 083f 9c3c 013e 372b 0dbf
00000040: 3b16 c1be d959 20bd a16f a03d 8195 1b3e
00000050: 6f7f 323d 13de 59bd f1ca 843e 630e dc3e
00000060: 0b0b 2dbf eaa8 7ebc 49e9 66bc f69c 213f
00000070: cd24 e23e 4cff fcbd d5a6 bd3d 607e 973e
00000080: 2f44 7d3d 32cf 263d d65c c9be 26a5 953c
00000090: e061 643e e0dc a13d eac1 843d 4748 653b
000000a0: c041 be3d b67a 4340 08b8 0b3e 2291 b1be
000000b0: 6dbd 74be 3f40 663d 0e2b b13e 9372 663f
000000c0: 0d0e 88bb 6a27 c23e e1b9 5cbf d90b 553c
000000d0: ed4c 9c3e 3206 483e 2305 b63a e8d8 c43c
000000e0: 535b 783e 9a48 98be 2248 cabd f506 203d
000000f0: 5abe 57bf 7397 083f 7a8e fabc 1f97 0fbd
00000100: 6c50 01bf ff56 99be 1d55 e6bc c6ec 4cbc
00000110: 6e7a 7cbe 4807 aabd da13 27be 27e3 9c3e
00000120: 77a8 98bd 5bad aebe 6769 19be 7265 d93b
00000130: 203a be3d cf97 8c3d 8c08 90bf ef83 5bbe
00000140: abc0 29be a8e1 1cbe 4a1a b4bd 2a22 6a3e
00000150: 1a32 d33e d5ce c43d 5118 0a3e a33f a5bb
00000160: 0cb2 083e 8add 86be 2db6 a4be 5f24 9b3d
00000170: 0065 6fbd 2d78 10be 3e5c 4b3c 35aa c8bd
00000180: 4224 1dbe cf22 5bbf a2bd 1ebf 9d3b 10bd
00000190: aef7 963d 2eb9 853e 7b85 593e be3a 93bb
000001a0: 08c8 0ebd 279d 18bf 7d36 d53c c173 d8bd
000001b0: cd3d 163f a333 7a3c 7961 6c3c 5cdf c73d
000001c0: 0857 e0be 3f44 6abf 465d 90be 946d 2f3e
000001d0: 2592 a3bd 1c45 1f3e 8388 c13c d333 cebd
000001e0: fe34 e0bd a132 2fbe ce6c f0be 328c bc3d
000001f0: 0b1e 1d3d 6b3d d6be 7364 97bd 8740 91be
00000200: 23b1 5a3e 828f 903b b1f1 ba3d 3412 d33b
00000210: 9965 d6bd 5f60 5e3d 3b73 993d e92d 663d
00000220: de38 0abf 1e7b cdbe f16f 333f 362a 3d3f
00000230: d41b 05bf af37 c3be 6ba4 243f 3b97 90bd
00000240: b468 1e3e 379c 03bf d4ac 04bd 7e4d 33bd
00000250: 5c69 773d 08a0 223c 9780 89bc f559 0a3d
00000260: 2663 8ebf cbf1 853e 80bc c1be ab6b e5be
00000270: a072 12bd 8936 5f3e 3097 ab3c af3f 0b3e
00000280: 6ce3 0c3e 94f2 80bf b80d 663c 2e79 893e
00000290: 4dbd 82bc 462f 7e3d 1042 2f3a 7319 85bd
000002a0: 80c4 b3bd b606 42bd cba6 d83c dc1e a03d
000002b0: 5bec eb3e 3bb1 023f 5fd1 023f 6da7 2fbf
000002c0: 7319 29bf 05c3 113f 22f7 2a3f 78e4 c9be
000002d0: 366d 70bd 893c f53c 7bc0 ab3e f37d ffbc
000002e0: 241f 36bd f84a f4bd ba09 173f 036c 533f
000002f0: 5439 d13e 0464 9fbf efe2 e43b ec6d 883e
00000300: 87ce f7bd 316c 3cbd 7b6c 9dbe ca9b a9be
00000310: 3fee fabe 6c93 90be 6fc6 863f 4e1b 163e
00000320: 5dc8 a1bd 9066 fcbe b4b7 393e 1286 873d
00000330: e8ca e83d bf7d 8d3c 1818 563e 78f3 ed3c
00000340: 6741 e33d a708 693d 7d91 b0be d27b 94be
00000350: 6bc6 023f 2e01 433f 3cd2 d9be ceab b2be
00000360: 7ca3 1b3e 8376 1b3e 743a 4fbd ba18 ffbd
00000370: 59bf d3bd 34d2 f23b 4aa9 0d3c df9d a3bd
00000380: 6e35 be3d b3cd 7a3d 8e80 86c0 790e 06bf
00000390: 78c4 fd3d b559 763d 043e 9c3b f091 6abe
000003a0: 42db e8be e2be dfbe 4930 61bd 958e 553f
000003b0: 6691 8bbe 5b9c 2c3d c1d0 86bb 92e6 c33c
000003c0: fb98 2f3d 0356 6f3d 8fe4 c23c 7cd1 b63d
000003d0: 1b15 00bc 7b98 f13e 9215 e63c b459 733e
000003e0: 5754 8d3e c33c ddbc 15c9 bc3d 6080 6c3e
000003f0: 5ccd 1d3e f790 223f c5b0 003e d05b 1f3d

input_edgeconv.graphconv.nn.convnetwork.0.bias f4 [32]
-0.045274332 0.05603121 -0.06437049 -0.039331257 0.23442522 0.21215431 0.062256813 0.032737542
-0.0072963643 0.0830165 0.111370884 -0.039631568 0.07419998 -0.045133177 0.026961599 -0.16857903
0.06755577 0.007287624 -0.20208222 -0.07727864 -0.0457816 -0.074424155 -0.124676965 0.1281379
0.17916621 0.051102623 0.17619888 0.0782973 -0.12601572 -0.005263994 -0.17944264 0.15788683
00000000: 9471 39bd fb80 653d add4 83bd d019 21bd
00000010: 2a0d 703e fb3e 593e 0001 7f3d cd17 063d
00000020: 5716 efbb 8e04 aa3d 6b16 e43d b654 22bd
00000030: 29f6 973d 91dd 38bd 92de dc3c fb9f 2cbe
00000040: ae5a 8a3d 05cd ee3b a4ee 4ebe 4344 9ebd
00000050: 7d85 3bbd b16b 98bd a356 ffbd 9536 033e
00000060: 5977 373e fc50 513d 7b6d 343e 565a a03d
00000070: 440a 01be 957d acbb d0bf 37be 16ad 213e

input_edgeconv.graphconv.nn.convnetwork.1.weight f4 [32]
0.80565375 0.79704195 1.0246161 0.79601735 0.86911184 1.2886097 1.3199427 1.227985
0.97691476 1.0819591 1.38422 0.98180926 0.7543395 0.76128274 0.88296866 0.6652615
0.8641026 1.0328413 1.1732787 0.9073381 0.7313026 1.0815781 0.80455947 0.7771554
0.8318395 1.0044947 0.6852289 1.0927421 0.8996583 1.1294794 1.0760956 0.6133434
00000000: 533f 4e3f f10a 4c3f 9f26 833f cbc7 4b3f
00000010: 1d7e 5e3f 2af1 a43f e2f3 a83f 9d2e 9d3f
00000020: 1617 7a3f a37d 8a3f 1f2e b13f da57 7b3f
00000030: 651c 413f 6de3 423f 3c0a 623f 944e 2a3f
00000040: d435 5d3f 2534 843f ff2d 963f 4f47 683f
00000050: a636 3b3f 2771 8a3f 9cf7 4d3f a8f3 463f
00000060: 6ff3 543f 4893 803f 296b 2f3f f9de 8b3f
00000070: 0250 663f c892 903f 80bd 893f 1304 1d3f

input_edgeconv.graphconv.nn.convnetwork.1.bias f4 [32]
0.10091799 -0.042465452 -0.030362798 -0.10528972 0.1569917 0.15840402 -0.11141616 0.06531302
0.004777724 -0.03027763 0.35716805 0.16380401 -0.093617246 -0.41436857 0.09985541 -0.0049080006
-0.18284823 0.13940479 0.15306447 -0.0393515 -0.12619127 -0.0240565 0.043288756 -0.12294497
0.053358663 -0.22184364 -0.13253243 0.27025092 0.22020377 0.25433353 0.29531866 -0.25455517
00000000: 17ae ce3d 41f0 2dbd 67bb f8bc 23a2 d7bd
00000010: 6fc2 203e aa34 223e 282e e4bd d5c2 853d
00000020: 748e 9c3b cb08 f8bc bbde b63e 3dbc 273e
00000030: 66ba bfbd 1e28 d4be fe80 cc3d 4bd3 a0bb
00000040: 913c 3bbe 21c0 0e3e efbc 1c3e 0a2f 21bd
00000050: 4938 01be 2312 c5bc 8d4f 313d 93ca fbbd
00000060: 9d8e 5a3d fb2a 63be 95b6 07be 545e 8a3e
00000070: 197d 613e 0138 823e 0234 973e 0e55 82be

input_edgeconv.graphconv.nn.convnetwork.1.running_mean f4 [32]
293.97974 -96.137535 -15.115124 34.341457 -29.062716 -3.7575686 0.6840772 -30.976082
56.876427 -236.28415 10.718399 -45.28433 62.464184 57.552105 -72.94919 -23.796637
28.372822 -32.317814 -12.891436 2.4829905 -26.543098 -125.62415 20.217289 -19.997873
-22.311235 -36.384018 -21.798264 77.90453 30.667332 -3.6037207 -35.313316 113.90138
00000000: 68fd 9243 6b46 c0c2 8cd7 71c1 a75d 0942
00000010: 7180 e8c1 017c 70c0 af1f 2f3f 04cf f7c1
00000020: 7681 6342 be48 6cc3 907e 2b41 2723 35c2
00000030: 53db 7942 5b35 6642 fce5 91c2 835f bec1
00000040: 8afb e241 7145 01c2 5243 4ec1 51e9 1e40
00000050: 4458 d4c1 913f fbc2 02bd a141 a5fb 9fc1
00000060: 697d b2c1 3c89 11c2 d862 aec1 1fcf 9b42
00000070: b256 f541 5ca3 66c0 d640 0dc2 82cd e342

input_edgeconv.graphconv.nn.convnetwork.1.running_var f4 [32]
1249.5266 545.6846 685.4201 694.0289 530.94147 131.93564 362.68774 154.5648
234.1481 632.2665 98.03931 255.07388 587.8169 524.88574 1030.7036 503.91553
402.66245 183.93204 170.16933 301.5838 323.4787 748.20294 239.27284 522.2041
241.0676 293.8889 450.50525 397.99014 149.71303 192.536 251.01575 590.0966
00000000: da30 9c44 d06b 0844 e35a 2b44 d981 2d44
00000010: 41bc 0444 86ef 0343 0858 b543 9790 1a43
00000020: ea25 6a43 0e11 1e44 2014 c442 ea12 7f43
00000030: 48f4 1244 b038 0344 84d6 8044 30f5 fb43
00000040: cb54 c943 9aee 3743 592b 2a43 baca 9643
00000050: 46bd a143 fd0c 3b44 d945 6f43 108d 0244
00000060: 4e11 7143 c7f1 9243 ac40 e143 bdfe c643
00000070: 89b6 1543 3789 4043 0804 7b43 2f86 1344

input_edgeconv.graphconv.nn.convnetwork.3.weight f4 [32, 32]
-0.031759296 -0.12494098 0.11648343 -0.070219345 0.019409804 -0.4941063 -0.407139 0.10687099
-0.10089696 0.02343785 0.18718177 -0.31051332 0.0058016414 -0.10071637 0.0058067925 0.040381685
-0.054215718 -0.22689171 -0.1523499 -0.017915528 -0.027384613 -0.19113901 0.14504549 0.12082257
-0.2369702 -0.13216797 0.002963864 0.13854991 -0.1589742 -0.11208303 0.07903801 0.11517222
0.03403754 -0.061752055 0.3046755 0.03860948 0.14147136 0.085527524 -0.2112069 -0.01806845
-0.10758637 0.14981732 -0.0126877 0.121744715 -0.025080092 0.03772775 0.13654618 0.035570286
-0.22049367 -0.20354562 0.3408035 -0.06727125 -0.0073349853 0.09805585 -0.19198056 -0.45947337
-0.08034392 -0.086184986 0.105466634 -0.18561248 -0.19456065 -0.16922712 -0.16843615 0.23751462
-0.11449094 0.18492292 0.26197055 -0.10752973 0.2821206 0.008324515 -0.016003827 -0.13147175
-0.1006503 -0.21254884 -0.055456683 -0.4624117 -0.058468178 0.12872578 -0.011850815 -0.018098047
-0.031133156 -0.25131816 -0.05200694 0.10928727 -0.019212943 0.050366312 -0.031045714 0.005975339
-0.3613618 0.15385796 -0.039023437 0.22530149 -0.08175835 -0.13573998 -0.11539224 -0.08154745
-0.083911754 -0.13990907 -0.1913622 0.03529559 0.21503392 -0.27961162 -0.051360734 -0.15283267
-0.02675574 0.1679408 -0.39180475 -0.19612247 -0.108820036 0.0937318 -0.021908632 -0.090716496
-0.07271254 0.10391793 0.056444556 -0.29245734 0.1331895 0.19635019 -0.07891317 -0.1824972
-0.082301535 -0.00944841 -0.0026004484 0.16535915 0.029959757 -0.025007525 -0.3125943 -0.111802235
0.08217716 0.13878909 -0.21123616 -0.08177224 -0.1015641 -0.007626495 0.20019318 0.47559103
-0.025453184 0.03053895 0.09997118 0.002076403 0.026373105 0.16377628 -0.04353327 -0.011883059
-0.14981581 0.23778236 -0.14216399 -0.08926233 -0.14237627 0.03660191 -0.121598 0.039214566
-0.20303151 0.25425076 -0.08624066 0.21068169 -0.071099125 -0.37790537 0.08371444 -0.015638353
-0.0009252074 0.17276664 -0.078751944 0.151593 -0.16703753 -0.28792536 -0.14392763 0.042016502
-0.026683794 -0.104676574 0.14294542 -0.30843824 0.05054208 0.07762466 0.12924798 -0.084429234
-0.26436004 -0.25626698 0.07101197 -0.0649586 0.15509875 0.07603028 -0.12635243 0.11504947
-0.25520435 0.22185971 -0.10843127 0.12895614 0.11808329 -0.3101066 -0.34358922 0.1022566
0.125027 -0.11881431 0.14923316 0.074806064 -0.1316761 0.05526131 -0.09724459 0.22057207
0.13283372 -0.22579844 0.09162577 -0.23644914 0.09402928 0.042990375 -0.005289841 0.16974787
-0.18197457 0.1740005 0.083147995 -0.037770756 0.050076857 -0.019264812 0.25626248 0.25146532
0.29415315 -0.12818818 0.1770638 -0.24121742 0.10215072 0.08517293 0.18934809 0.015932791
0.14990842 -0.16966663 -0.1976658 -0.023141032 -0.21427247 -0.17000492 -0.3842885 0.10459756
0.07930963 -0.069029234 -0.0568743 -0.28791207 0.11904759 -0.05576571 -0.1616074 0.31525996
-0.16988029 -0.22202374 -0.061452452 0.0945392 -0.061064206 0.039824575 0.038063396 0.13765587
0.041975766 0.05652394 0.04195541 -0.23864529 -0.10138235 -0.067412734 0.036599115 0.022850592
00000000: 0916 02bd 0ee1 ffbd dd8e ee3d 29cf 8fbd
00000010: 4f01 9f3c 80fb fcbe 8674 d0be 2ddf da3d
00000020: 11a3 cebd bc00 c03c 94ac 3f3e 9afb 9ebe
00000030: b21b be3b 6244 cebd e846 be3b 4467 253d
00000040: 4d11 5ebd 4d56 68be 9d01 1cbe 96c3 92bc
00000050: b255 e0bc f2b9 43be ce86 143e d371 f73d
00000060: 51a8 72be 0a57 07be 633d 423b 07e0 0d3e
00000070: 22ca 22be ca8b e5bd aede a13d 6adf eb3d
00000080: f36a 0b3d b9ef 7cbd 6dfe 9b3e f924 1e3d
00000090: dedd 103e 0e29 af3d 9f46 58be 4904 94bc
000000a0: 3e56 dcbd b669 193e 12e0 4fbc 4b55 f93d
000000b0: c474 cdbc 6a88 1a3d c3d2 0b3e 26b2 113d
000000c0: 18c9 61be 436e 50be cc7d ae3e 82c5 89bd
000000d0: 515a f0bb 81d1 c83d 8d96 44be 1840 ebbe
000000e0: 5a8b a4bd c181 b0bd e4fe d73d 3311 3ebe
000000f0: e83a 47be e049 2dbe 877a 2cbe 0837 733e
00000100: 3a7a eabd 6f5c 3d3e 0121 863e 8c38 dcbd
00000110: 1c72 903e 8c63 083c 751a 83bc 88a0 06be
00000120: bf21 cebd 67a6 59be 8c26 63bd 3ac1 ecbe
00000130: 547c 6fbd b1d0 033e ec29 42bc 5b42 94bc
00000140: f60a ffbc c6ac 80be 3b05 55bd 01d2 df3d
00000150: 7664 9dbc e84c 4e3d 9553 febc c7cc c33b
00000160: 6a04 b9be f18c 1d3e 0ad7 1fbd 6fb5 663e
00000170: ec70 a7bd 6cff 0abe c452 ecbd 5902 a7bd
00000180: edd9 abbd 5344 0fbe 74f4 43be 1c92 103d
00000190: da31 5c3e 4129 8fbe a25f 52bd 2b80 1cbe
000001a0: db2e dbbc acf8 2b3e a29a c8be 54d4 48be
000001b0: 0add debd 75f6 bf3d bb79 b3bc 92c9 b9bd
000001c0: 50ea 94bd ecd2 d43d 6832 673d f8bc 95be
000001d0: d462 083e 0610 493e 3a9d a1bd 8ce0 3abe
000001e0: b58d a8bd 81cd 1abc 496c 2abb e953 293e
000001f0: 2a6e f53c 95dc ccbc 5c0c a0be 92f8 e4bd
00000200: 804c a83d ba1e 0e3e 4b4e 58be 3478 a7bd
00000210: d700 d0bd ade7 f9bb 71ff 4c3e ab80 f33e
00000220: 3283 d0bc d22c fa3c b1bd cc3d 4314 083b
00000230: 690c d83c f8b4 273e f14f 32bd 29b1 42bc
00000240: 5169 19be 387d 733e 7093 11be 2bcf b6bd
00000250: 16cb 11be e2eb 153d 5f08 f9bd 749f 203d
00000260: 7ee7 4fbe 282d 823e f19e b0bd f1bc 573e
00000270: 6b9c 91bd d07c c1be 7a72 ab3d 011c 80bc
00000280: 9e89 72ba bde9 303e b348 a1bd 323b 1b3e
00000290: e30b 2bbe f46a 93be c461 13be 7f19 2c3d
000002a0: f997 dabc ac60 d6bd 4960 123e 9eeb 9dbe
000002b0: 3605 4f3d aef9 9e3d 9559 043e 3ce9 acbd
000002c0: 335a 87be 6d35 83be b96e 913d 0409 85bd
000002d0: 35d2 1e3e c3b5 9b3d 8862 01be 0e9f eb3d
000002e0: 25aa 82be 312f 633e 3711 debd 140d 043e
000002f0: a7d5 f13d 4bc6 9ebe edea afbe e96b d13d
00000300: 1407 003e eb54 f3bd 94d0 183e ec33 993d
00000310: 19d6 06be af59 623d 2c28 c7bd a5dd 613e
00000320: 9005 083e b537 67be 4ba6 bb3d b91f 72be
00000330: 6c92 c03d ad16 303d 6756 adbb 63d2 2d3e
00000340: 8b57 3abe 302d 323e 7f49 aa3d 82b5 1abd
00000350: 641d 4d3d 3dd1 9dbc d634 833e 10c0 803e
00000360: 3e9b 963e c343 03be 3650 353e b301 77be
00000370: 6634 d13d 256f ae3d 77e4 413e 7c85 823c
00000380: 9881 193e 17bd 2dbe e768 4abe 4392 bdbc
00000390: 3e6a 5bbe c515 2ebe 76c1 c4be 3f37 d63d
000003a0: 166d a23d 335f 8dbd 07f5 68bd 3669 93be
000003b0: 39cf f33d 966a 64bd 697c 25be c169 a13e
000003c0: 19f5 2dbe 315a 63be 91b5 7bbd c59d c13d
000003d0: 761e 7abd 181f 233d 5de8 1b3d a9f5 0c3e
000003e0: c8ee 2b3d a685 673d 70d9 2b3d 6e5f 74be
000003f0: 8da1 cfbd b00f 8abd f4e8 153d 2a31 bb3c

input_edgeconv.graphconv.nn.convnetwork.3.bias f4 [32]
-0.032703985 0.2005749 -0.12271821 0.11661862 0.1084943 -0.14316708 -0.13627063 0.22935177
-0.11353615 0.16189325 -0.15897326 0.09575292 0.050302155 0.03953416 0.30996957 -0.2325342
0.30911633 0.12536986 -0.08815401 -0.04057846 -0.1361472 0.045796517 0.048327956 -0.1138186
0.16742861 -0.14883173 -0.12592222 0.17734006 -0.021740785 -0.3128759 -0.18082279 -0.16189879
00000000: 9df4 05bd 8263 4d3e af53 fbbd bed5 ee3d
00000010: 4232 de3d 649a 12be 878a 0bbe 31db 6a3e
00000020: a485 e8bd 58c7 253e e3c9 22be 1b1a c43d
00000030: a209 4e3d 92ee 213d 55b4 9e3e 721d 6ebe
00000040: 7f44 9e3e f560 003e 178a b4bd 9935 26bd
00000050: 2c6a 0bbe 2195 3b3d 89f3 453d ba19 e9bd
00000060: 6872 2b3e 5867 18be c1f1 00be a298 353e
00000070: bb19 b2bc 4531 a0be 9c29 39be ccc8 25be

input_edgeconv.graphconv.nn.convnetwork.4.weight f4 [32]
1.0762048 0.9908852 0.9336691 0.90388733 1.198377 0.9616669 0.8489363 0.9951838
1.0371143 0.96896833 1.0205374 0.8772179 0.9311528 1.0547107 0.94845796 1.0362073
1.1301831 0.9212012 1.0486639 1.0219221 0.97232014 0.927637 0.8882282 0.9126316
0.9806628 0.91263103 0.9100943 0.9761846 1.0461869 1.2589666 1.042281 1.1388626
00000000: 14c1 893f a7aa 7d3f f004 6f3f 2965 673f
00000010: 6b64 993f cd2f 763f e453 593f 5ec4 7e3f
00000020: 29c0 843f 4f0e 783f f8a0 823f 5a91 603f
00000030: 0860 6e3f c300 873f 24ce 723f 71a2 843f
00000040: d7a9 903f d8d3 6b3f 9e3a 863f 58ce 823f
00000050: f9e9 783f 9e79 6d3f ec62 633f 39a2 693f
00000060: b80c 7b3f 30a2 693f f1fb 683f 3ce7 793f
00000070: 74e9 853f d125 a13f 7769 853f 40c6 913f

input_edgeconv.graphconv.nn.convnetwork.4.bias f4 [32]
-0.26769307 -0.27492496 0.14300475 0.08674949 0.02772663 -0.082792126 -0.26445642 -0.006505018
0.053143546 0.17636755 -0.17133962 -0.14211434 -0.11762794 -0.07749253 0.10787018 0.13205421
0.21372615 0.18784189 0.009113235 -0.04470891 0.15900823 -0.1269037 0.0025609143 0.4540074
0.096834496 0.12150712 -0.026715208 -0.063067965 -0.238477 -0.09905572 -0.07099846 0.0443597
00000000: 110f 89be f7c2 8cbe d66f 123e b7a9 b13d
00000010: f522 e33c eb8e a9bd d566 87be 0c28 d5bb
00000020: 0cad 593d b299 343e a773 2fbe 6c86 11be
00000030: ebe6 f0bd 67b4 9ebd 0aeb dc3d 3839 073e
00000040: 07db 5a3e a059 403e ae4f 153c b120 37bd
00000050: 0ed3 223e 0bf3 01be 03d5 273b a873 e83e
00000060: 2a51 c63d bad8 f83d dad9 dabc c729 81bd
00000070: 5133 74be badd cabd a467 91bd 84b2 353d

input_edgeconv.graphconv.nn.convnetwork.4.running_mean f4 [32]
-0.8185415 -0.04936566 -0.6221378 -0.6169973 0.3004989 -0.75652725 0.320104 -0.43691134
-0.20344362 -1.2059286 0.37051156 -0.21876873 -0.43323493 0.6432407 0.17574736 -0.81784487
-0.77738863 0.51865524 -0.84220666 0.17774016 -0.19845626 -0.13122949 -0.74400353 -0.82671285
-0.4317756 -0.98440945 0.27087426 -0.22825293 -0.22903025 -0.1856701 -0.91873866 -0.6890404
00000000: f08b 51bf a533 4abd 6c44 1fbf 89f3 1dbf
00000010: feda 993e c5ab 41bf ace4 a33e d8b2 dfbe
00000020: 8653 50be de5b 9abf b1b3 bd3e e904 60be
00000030: f8d0 ddbe 6cab 243f 1ef7 333e 485e 51bf
00000040: f102 47bf 97c6 043f db9a 57bf 8401 363e
00000050: 1e38 4bbe 0661 06be 0477 3ebf 74a3 53bf
00000060: b111 ddbe 4202 7cbf 08b0 8a3e 23bb 69be
00000070: e886 6abe 4d20 3ebe 7532 6bbf f464 30bf

input_edgeconv.graphconv.nn.convnetwork.4.running_var f4 [32]
0.43407795 0.36048993 0.27281788 0.16377391 0.38938692 0.42907733 0.21741618 0.39483488
0.29907596 0.31438774 0.20954517 0.22279806 0.22102472 0.2978692 0.45287517 0.5425333
0.38745296 0.18001948 0.3197361 0.49247342 0.5381388 0.44978553 0.20392382 0.2595278
0.28129625 0.3505839 0.19624661 0.4577109 0.32285944 0.59122574 0.4404987 0.45453048
00000000: 773f de3e 2392 b83e c9ae 8b3e 59b4 273e
00000010: b95d c73e 06b0 db3e 59a2 5e3e cc27 ca3e
00000020: 7c20 993e 6ef7 a03e 0293 563e 2d25 643e
00000030: 4e54 623e 5082 983e 41df e73e 76e3 0a3f
00000040: 3c60 c63e 0757 383e 73b4 a33e 7a25 fc3e
00000050: 77c3 093f 4a4a e63e 68d1 503e d4e0 843e
00000060: 1006 903e bc7f b33e dff4 483e 1559 ea3e
00000070: d54d a53e 925a 173f 0c89 e13e 38b8 e83e

input_edgeconv.graphconv.nn.convnetwork.6.weight f4 [32, 32]
0.0077279797 0.14578827 -0.07536637 -0.106403634 -0.33338034 0.08866542 -0.01491882 0.12673345
-0.2789355 0.27191797 -0.030247942 0.14939971 0.09960691 -0.15327568 0.123996876 0.08205521
-0.015663708 -0.03545282 -0.02518653 -0.26477817 0.24157591 -0.32907566 -0.0124877 0.12987341
0.102502696 -0.15773286 -0.017433088 0.16188157 -0.037530664 -0.25648245 0.047406696 -0.116679944
-0.023869967 -0.009604258 -0.28357396 0.06707959 -0.30950335 -0.3062927 -0.036862545 0.21461008
0.052786916 -0.09521577 0.08403895 -0.051365506 0.05006466 0.043375168 0.042445358 -0.30653796
-0.028216476 -0.11151339 -0.047541793 -0.10288831 -0.023658462 0.11943694 -0.015393678 0.27293527
-0.27284542 0.05414608 0.24996094 -0.10057765 -0.09633885 0.18093923 -0.2144887 -0.10507056
0.013640703 0.11362557 -0.10411868 -0.032222606 0.022303777 -0.18911785 0.029520715 -0.100610375
0.048072707 0.24239664 -0.25572595 0.35709682 -0.17306307 -0.13510428 0.09343647 -0.15024965
-0.21469522 -0.0935191 -0.07111862 -0.011372162 0.09361628 -0.2071531 -0.123425804 0.12000735
-0.0039215554 -0.10526253 -0.2812163 -0.0033555331 0.21526505 0.12577313 -0.04428228 0.27491635
0.2735157 0.0177576 0.15428185 -0.09134001 -0.407342 -0.060470324 0.12800734 -0.08116935
-0.061653983 0.13910544 -0.15106618 -0.20345488 0.11465137 -0.07478544 0.023041768 -0.1849518
-0.4033967 -0.08183025 0.21086073 -0.16596127 0.01712896 -0.12298696 -0.044070274 -0.12748046
0.11329833 -0.2744481 -0.064574294 0.04276537 -0.037867762 -0.33158934 0.032630924 0.16053723
0.030345913 -0.05315354 -0.1341584 -0.0359713 -0.06448068 0.20101012 0.049123842 -0.06721286
0.060478486 -0.23825586 -0.06372134 -0.03001518 -0.06632913 -0.34828544 0.089928985 -0.066927806
-0.08437574 -0.07812737 0.22986 -0.30768892 0.17723335 -0.18050225 0.10331759 -0.27483812
0.1377578 0.072666794 -0.24628454 -0.1300626 -0.19825336 -0.17934355 0.082240775 -0.018658198
0.058317564 0.20034614 -0.48036206 -0.15422694 -0.12278418 0.15144545 0.10206045 0.20908605
-0.40198302 0.017771829 0.094045125 0.12544964 0.066418216 -0.115855575 0.035924364 0.030632349
-0.14369658 -0.0332876 -0.116398 0.10691278 -0.07711411 -0.024382038 0.009201814 0.07808508
0.20384623 -0.21924713 0.024959195 0.064919375 -0.30296215 0.031120632 0.1293952 -0.19846039
-0.2769567 -0.026835231 -0.089096196 0.043000765 0.34756467 0.19909017 -0.17956673 0.21519493
0.059926573 -0.23034312 0.04171313 -0.18750702 0.14738691 -0.18906222 0.15601021 0.12361395
-0.096119896 -0.015428506 -0.2518843 -0.17091672 0.06090614 0.051505793 0.11780172 0.3599738
-0.13538702 0.09559585 -0.0624119 -0.03759874 -0.032956697 0.1921537 0.025377885 -0.07427309
-0.124189794 -0.052479345 -0.12842748 -0.3059515 0.16633561 -0.07723674 0.15248084 -0.1433801
0.059564076 -0.19836482 0.045643758 0.13444619 0.019908126 0.08691639 -0.1105719 -0.106436744
-0.11994194 0.070637755 0.16259919 0.1751851 -0.1312362 -0.077760674 -0.22558634 -0.5161413
-0.038518734 -0.33770236 -0.1420655 -0.026603285 0.06655493 0.098518975 0.11165863 -0.061910413
00000000: fe3a fd3b 8549 153e af59 9abd 26ea d9bd
00000010: d4b0 aabe 3796 b53d 116e 74bc 6ac6 013e
00000020: a2d0 8ebe d538 8b3e 88ca f7bc 3dfc 183e
00000030: b5fe cb3d 4df4 1cbe 13f2 fd3d 900c a83d
00000040: 2d51 80bc fa36 11bd fb53 cebc 0191 87be
00000050: ad5f 773e 9b7c a8be 3699 4cbc 89fd 043e
00000060: efec d13d b984 21be d6cf 8ebc 48c4 253e
00000070: c1b9 19bd ab51 83be 862d 423d e5f5 eebd
00000080: f38a c3bc 2e5b 1dbc 9b30 91be 0661 893d
00000090: 3977 9ebe 66d2 9cbe 2efd 16bd bfc2 5b3e
000000a0: 1837 583d 7c00 c3bd 9d1c ac3d a364 52bd
000000b0: 9a10 4d3d 29aa 313d 2fdb 2d3d 8bf2 9cbe
000000c0: 3d26 e7bc 2261 e4bd 2fbb 42bd 1bb7 d2bd
000000d0: 64cf c1bc 5b9b f43d c435 7cbc 2cbe 8b3e
000000e0: 65b2 8bbe 48c8 5d3d c3f5 7f3e a8fb cdbd
000000f0: 4e4d c5bd 2248 393e eda2 5bbe 3c2f d7bd
00000100: 417d 5f3c 86b4 e83d 2d3c d5bd dafb 03bd
00000110: 69b6 b63c 1ca8 41be 6dd5 f13c d00c cebd
00000120: e3e7 443d d336 783e 83ee 82be 65d5 b63e
00000130: 7237 31be c758 0abe 9f5b bf3d 0bdb 19be
00000140: 10d9 5bbe f186 bfbd a4a6 91bd 4e52 3abc
00000150: e4b9 bf3d f11f 54be abc6 fcbd 6ac6 f53d
00000160: 6480 80bb e293 d7bd 95fb 8fbe 81e8 5bbb
00000170: 716e 5c3e acca 003e 5661 35bd d6c1 8c3e
00000180: 400a 8c3e 6378 913c 10fc 1d3e 7910 bbbd
00000190: 218f d0be bbaf 77bd 5b14 033e 1e3c a6bd
000001a0: e388 7cbd a871 0e3e 18b1 1abe 7a56 50be
000001b0: 56ce ea3d 1c29 99bd 17c2 bc3c 0164 3dbe
000001c0: 038a cebe 9e96 a7bd e0eb 573e c0f1 29be
000001d0: 0852 8c3c 96e0 fbbd 0883 34bd 3d8a 02be
000001e0: f408 e83d 7684 8cbe 873f 84bd be2a 2f3d
000001f0: 3a1b 1bbd 14c6 a9be 01a8 053d df63 243e
00000200: fe97 f83c 87b7 59bd d260 09be a456 13bd
00000210: 720e 84bd 99d5 4d3e 1536 493d e5a6 89bd
00000220: 4ab8 773d 58f9 73be 5580 82bd 65e2 f5bc
00000230: 91d7 87bd 7852 b2be b02c b83d 7211 89bd
00000240: 30cd acbd 3e01 a0bd 6b60 6b3e 6789 9dbe
00000250: a97c 353e 95d5 38be 2c98 d33d 95b7 8cbe
00000260: 6110 0d3e 54d2 943d 0432 7cbe 212f 05be
00000270: ee02 4bbe d6a5 37be da6d a83d 14d9 98bc
00000280: 66de 6e3d 8a27 4d3e 04f2 f5be abed 1dbe
00000290: 4676 fbbd 8414 1b3e 1205 d13d a71a 563e
000002a0: b8d0 cdbe 3a96 913c bb9a c03d df75 003e
000002b0: 4606 883d b045 edbd 6d25 133d b1f0 fa3c
000002c0: 3225 13be 9458 08bd 1362 eebd 16f5 da3d
000002d0: 01ee 9dbd d7bc c7bc 35c3 163c 12eb 9f3d
000002e0: 11bd 503e 5282 60be 3a77 cc3c 73f4 843d
000002f0: db1d 9bbe b2f0 fe3c 2d80 043e 3339 4bbe
00000300: 45cd 8dbe 8fd5 dbbc 1178 b6bd 9221 303d
00000310: fff3 b13e 4bde 4b3e 57e0 37be 0f5c 5c3e
00000320: 9175 753d 11df 6bbe 63db 2a3d d701 40be
00000330: 98ec 163e 8799 41be 24c1 1f3e 5029 fd3d
00000340: 82da c4bd d8c7 7cbc fbf6 80be cb04 2fbe
00000350: b778 793d bdf7 523d 0742 f13d 7c4e b83e
00000360: e5a2 0abe c2c7 c33d 9fa3 7fbd 2301 1abd
00000370: 9afd 06bd f1c3 443e 48e5 cf3c 7d1c 98bd
00000380: 3857 febd 95f4 56bd 7e82 03be ada5 9cbe
00000390: e253 2a3e 4c2e 9ebd f023 1c3e 3cd2 12be
000003a0: 76f9 733d 2620 4bbe f3f4 3a3d 43ac 093e
000003b0: 5e16 a33c 3801 b23d 8573 e2bd 82fb d9bd
000003c0: 1fa4 f5bd 87aa 903d 6780 263e b963 333e
000003d0: c862 06be fd40 9fbd 1b00 67be d621 04bf
000003e0: d2c5 1dbd 53e7 acbe 9e79 11be 22ef d9bc
000003f0: f34d 883d 51c4 c93d 48ad e43d c695 7dbd

input_edgeconv.graphconv.nn.convnetwork.6.bias f4 [32]
-0.04511328 0.148564 0.12924716 -0.03862732 -0.04158272 -0.11790322 -0.06590549 0.22862709
0.29655033 -0.12752771 -0.4463162 0.19007201 -0.28579482 -0.0516957 0.08407734 -0.020521855
-0.21718787 0.17577124 -0.022950178 0.069632225 -0.11355655 -0.0015955458 -0.071198456 0.16068539
-0.04844741 0.14749539 -0.019116987 0.07380009 0.002949474 -0.059757933 -0.32285514 0.055442274
00000000: b4c8 38bd 2921 183e 5e59 043e ae37 1ebd
00000010: a452 2abd 3e77 f1bd 75f9 86bd 381d 6a3e
00000020: 72d5 973e a096 02be 8f83 e4be 3da2 423e
00000030: b353 92be dfbe 53bd be30 ac3d 731d a8bc
00000040: 7f66 5ebe 60fd 333e 0302 bcbc 579b 8e3d
00000050: 5690 e8bd a221 d1ba 7fd0 91bd b68a 243e
00000060: cb70 46bd 0809 173e 3a9b 9cbc 8024 973d
00000070: f64b 413b bcc4 74bd 454d a5be 7017 633d

input_edgeconv.graphconv.nn.convnetwork.7.weight f4 [32]
0.88675576 0.9595105 0.920973 0.9644522 0.89301574 0.9218807 0.9061835 1.0272905
0.88204974 0.96129745 0.9654959 0.89769995 1.015537 1.169065 0.9780914 1.0284679
0.88438016 0.9925499 1.0295221 0.9507588 0.99799657 0.95297396 0.83202136 1.0321451
0.9451618 0.8623295 1.112807 0.9335569 1.0018511 1.2136256 0.91617423 0.94205874
00000000: 6d02 633f 7ba2 753f e3c4 6b3f 57e6 763f
00000010: ae9c 643f 6000 6c3f a4fb 673f 417e 833f
00000020: 03ce 613f 9717 763f bd2a 773f aacf 653f
00000030: 1efd 813f eca3 953f 3364 7a3f d6a4 833f
00000040: bd66 623f c017 7e3f 61c7 833f ee64 733f
00000050: b47c 7f3f 1af6 733f 5aff 543f 551d 843f
00000060: 20f6 713f a0c1 5c3f 7670 8e3f 96fd 6e3f
00000070: a83c 803f 1558 9b3f 658a 6a3f c32a 713f

input_edgeconv.graphconv.nn.convnetwork.7.bias f4 [32]
0.17202091 0.018543424 -0.1369591 -0.30262545 0.13811412 0.22163337 0.039767396 0.10859709
0.124142654 -0.075778045 -0.1607837 -0.0023662583 -0.04715756 -0.9395233 0.029600374 0.043628167
-0.09872544 -0.3844068 0.08418443 -0.2185707 0.04308961 -0.22476637 -0.26890647 -0.17886819
-0.039516635 0.076445475 -0.11131918 0.058662932 -0.0670655 -0.45170966 -0.687693 0.009259069
00000000: 4026 303e 61e8 973c 023f 0cbe b9f1 9abe
00000010: ca6d 0d3e dcf3 623e 23e3 223d 2768 de3d
00000020: 813e fe3d 8531 9bbd 7ba4 24be 3a13 1bbb
00000030: 4928 41bd 9984 70bf 7c7c f23c 73b3 323d
00000040: 9030 cabd f8d0 c4be e368 ac3d ffd0 5fbe
00000050: bb7e 303d 2829 66be 1cae 89be 3929 37be
00000060: 32dc 21bd 728f 9c3d 4ffb e3bd 8b48 703d
00000070: a359 89bd 7d46 e7be a60c 30bf 5ab3 173c

input_edgeconv.graphconv.nn.convnetwork.7.running_mean f4 [32]
-0.23251288 -0.2914701 -0.036063947 -0.7747268 -0.69362056 -0.4423959 0.17778191 -0.5048311
0.230299 -0.31063637 -0.6628866 1.0125829 -0.3912056 -0.02175061 -0.5322928 -0.41389364
0.06729442 0.4918042 -0.25512397 -0.29997358 -0.54230213 0.1489808 0.10122872 -0.03417072
-0.21310262 -0.025958046 0.29365546 -0.4097646 -0.013401116 -0.066251606 -0.73639345 -0.005894532
00000000: db17 6ebe 923b 95be cab7 13bd 7f54 46bf
00000010: 1e91 31bf b781 e2be 760c 363e 9c3c 01bf
00000020: 80d3 6b3e bb0b 9fbe f0b2 29bf 519c 813f
00000030: 1a4c c8be 562e b2bc 5744 08bf dee9 d3be
00000040: a8d1 893d c3cd fb3e 9c9f 82be 2396 99be
00000050: 50d4 0abf 6c8e 183e 0151 cf3d 99f6 0bbd
00000060: 9337 5abe f8a5 d4bc 025a 963e aacc d1be
00000070: 5b90 5bbc ecae 87bd 4884 3cbf eb26 c1bb

input_edgeconv.graphconv.nn.convnetwork.7.running_var f4 [32]
0.428278 0.58072084 0.32517266 0.30628714 0.3365037 0.53696054 0.42413747 0.6494223
0.2525694 0.35065606 0.28237602 0.35581234 0.40327996 0.27629423 0.42981035 0.43555143
0.3954928 0.25506252 0.6683523 0.22618715 0.78933144 0.8067052 0.35944656 0.31629083
0.76424354 0.40249127 0.44108754 0.42892763 0.47012392 0.45103857 0.26507947 0.24875435
00000000: 4147 db3e 1faa 143f 087d a63e abd1 9c3e
00000010: 374a ac3e 3f76 093f 8c28 d93e 8a40 263f
00000020: c750 813e 3189 b33e 9793 903e 092d b63e
00000030: b67a ce3e 7076 8d3e 1a10 dc3e 9900 df3e
00000040: 087e ca3e 8e97 823e 2319 2b3f 9b9d 673e
00000050: a011 4a3f 3b84 4e3f 6109 b83e dff0 a13e
00000060: 77a5 433f 5613 ce3e 3ad6 e13e 679c db3e
00000070: 15b4 f03e 87ee e63e 7fb8 873e 76b9 7e3e

edgeconv1.dynamicgraphconv.nn.convnetwork.0.weight f4 [64, 64]
0.019571707 0.019719156 -0.034357116 -0.11683032 -0.08428632 -0.08602485 -0.05453118 0.11307656
0.07041305 -0.0684496 -0.08661399 0.11144595 -0.04482265 0.044514615 -0.013717361 -0.021682331
-0.059581272 0.33571187 -0.15542383 -0.13445568 -0.17029573 -0.07480517 0.0014981371 0.14323077
-0.18368694 0.078999326 0.19095103 0.023203338 -0.25724784 -0.15586264 -0.08355482 -0.0046888543
0.33838496 -0.24607913 0.0106723625 0.024620365 0.0174897 0.020459605 -0.0030033602 0.21713114
-0.055332895 0.06635272 -0.09947408 0.0121615585 -0.19498265 -0.53458756 -0.09344937 0.17027888
-0.24922521 0.024026942 0.22061327 0.10251333 -0.065087594 -0.008552861 -0.046497636 -0.011299418
0.42680934 -0.0523941 0.11402858 0.32313144 0.24425831 0.08690715 0.09299734 -0.06259169
-0.39710015 -0.09425826 -0.067061864 0.20990244 -0.06601933 -0.02658585 -0.35412118 -0.05138488
0.0034806111 -0.0704082 -0.030777706 -0.17858398 0.06800834 -0.015070103 0.0059728078 -0.01981281
-0.14019799 0.06519086 -0.018611906 0.022149501 -0.023780225 -0.020590624 -0.10030825 0.03612596
-0.37205863 -0.1813205 -0.23479675 0.04803846 -0.13934775 0.17672925 -0.15093274 -0.015774531
0.33501163 -0.02638122 0.10013273 0.0046277554 0.04099942 0.10276067 0.33939978 0.0821564
0.07788697 0.07270619 0.18319365 0.26418996 -0.19502334 0.08964088 -0.049039174 0.008798508
0.14653258 -0.12338332 0.16153221 -0.04565678 -0.18927494 0.15773465 -0.018566879 0.1638798
0.12430662 -0.044502664 -0.010802226 -0.05308419 -0.062659495 -0.11513968 0.033306707 0.32851714
0.035936866 -0.22800219 0.052479614 -0.063156605 -0.086882785 -0.094876826 0.09761654 0.03641247
0.0140122445 -0.03517536 0.11982772 0.07177232 -0.15646034 -0.37036636 0.16371037 0.2909977
-0.039020732 0.021015296 -0.11348574 -0.16827199 -0.053756867 0.059408277 -0.10689575 -0.061932564
0.090085074 0.07271859 0.0064120376 0.094182104 0.2053853 -0.13487291 -0.009829226 0.03555866
0.026145296 0.16784438 0.15070094 -0.03505608 -0.010412629 -0.10720966 0.032659076 0.015999181
-0.3360093 -0.007820166 -0.07389016 -0.10801304 0.09709617 0.118083015 0.22082603 -0.041918803
0.034601096 -0.19325645 0.09319038 -0.061836306 -0.08951172 -0.110554606 0.024107406 0.076438926
-0.15796566 -0.04620574 -0.16447683 0.021657558 0.15607175 -0.44640896 -0.12640864 -0.28132522
0.062517636 0.06652688 0.20823345 0.0009888439 -0.009626025 0.083334446 0.08364025 -0.20655157
0.11096431 -0.36804858 0.00028400467 0.20240392 -0.09930647 0.15984887 0.0052031046 0.076587364
-0.002797526 0.03240434 -0.105126776 0.11212453 0.09605435 0.13805589 0.02885626 0.0433837
0.012617207 0.014700992 -0.1701461 0.043403193 -0.110421404 0.108497605 0.057962667 0.12782864
-0.13900588 0.07861531 -0.09159405 -0.12321143 -0.11299688 -0.011207336 -0.18164147 0.06995879
-0.16996326 0.21047036 0.16259114 -0.12343348 -0.1628749 -0.110625505 -0.18278387 0.10829133
-0.11888091 0.03658462 0.26600596 0.053183503 -0.16585357 -0.30459228 -0.17512669 0.13731267
-0.045040004 -0.07961509 -0.09590748 0.074390076 -0.2583476 0.003895375 -0.026908549 -0.06346967
00000000: d854 a03c 118a a13c 0cba 0cbd bc44 efbd
00000010: 4e9e acbd cc2d b0bd 165c 5fbd af94 e73d
00000020: b834 903d 4e2f 8cbd ad62 b1bd c63d e43d
00000030: f497 37bd f554 363d c8be 60bc 259f b1bc
00000040: 7e0b 74bd 6de2 ab3e 6d27 1fbe c0ae 09be
00000050: 0162 2ebe 7433 99bd 245d c43a 16ab 123e
00000060: 6e18 3cbe 66ca a13d ab88 433e ed14 be3c
00000070: fdb5 83be 759a 1fbe ca1e abbd f6a4 99bb
00000080: cb40 ad3e 2bfc 7bbe 22db 2e3c a6b0 c93c
00000090: 8f46 8f3c e79a a73c 06d4 44bb a057 5e3e
000000a0: bfa4 62bd efe3 873d 11b9 cbbd 4641 473c
000000b0: 88a9 47be bbda 08bf 6262 bfbd 965d 2e3e
000000c0: e534 7fbe 26d4 c43c 72e8 613e 82f2 d13d
000000d0: a54c 85bd 4d21 0cbc 4e74 3ebd 3221 39bc
000000e0: c186 da3e 329b 56bd d187 e93d 7c71 a53e
000000f0: da1e 7a3e 60fc b13d 6475 be3d 1230 80bd
00000100: b650 cbbe 7a0a c1bd bb57 89bd aaf0 563e
00000110: 2435 87bd 92ca d9bc 5f4f b5be f478 52bd
00000120: f71a 643b 2d32 90bd 8721 fcbc b8de 36be
00000130: f547 8b3d 98e8 76bc 8bb7 c33b 794e a2bc
00000140: 1090 0fbe c982 853d ff77 98bc df72 b53c
00000150: bfce c2bc abad a8bc 696e cdbd d1f8 133d
00000160: 787e bebe 15ac 39be 8f6e 70be fac3 443d
00000170: 2db1 0ebe 83f8 343e 1d8e 1abe 9739 81bc
00000180: a586 ab3e 6e1d d8bc 6412 cd3d 6da4 973b
00000190: 02ef 273d 3074 d23d cfc5 ad3e 9d41 a83d
000001a0: 3483 9f3d fce6 943d 1e97 3b3e e843 873e
000001b0: 33b4 47be a395 b73d 4ddd 48bd 9e27 103c
000001c0: a30c 163e 65b0 fcbd b368 253e 9b02 3bbd
000001d0: 4ad1 41be 3185 213e 9119 98bc 1bd0 273e
000001e0: 7894 fe3d 6d48 36bd d2fb 30bc cf6e 59bd
000001f0: 9f53 80bd 5ace ebbd 9d6c 083d 6633 a83e
00000200: 8932 133d 6879 69be ddf4 563d 4058 81bd
00000210: 9aef b1bd c84e c2bd 2eeb c73d 3e25 153d
00000220: 9d93 653c 0a14 10bd 3c68 f53d 5efd 923d
00000230: 2437 20be a9a0 bdbe b1a3 273e a7fd 943e
00000240: 34d4 1fbd 4528 ac3c 366b e8bd 7e4f 2cbe
00000250: 2930 5cbd 1856 733d 29ec dabd 00ad 7dbd
00000260: 867e b83d 7ced 943d 121c d23b 8ce2 c03d
00000270: 8650 523e 201c 0abe c30a 21bc f5a5 113d
00000280: a92e d63c 66df 2b3e 5951 1a3e f796 0fbd
00000290: bb99 2abc bd90 dbbd 86c5 053d b710 833c
000002a0: 6909 acbe 2720 00bc b953 97bd f135 ddbd
000002b0: 5bda c63d 82d5 f13d 3820 623e 0db3 2bbd
000002c0: e1b9 0d3d 05e5 45be 99da be3d 1148 7dbd
000002d0: ec51 b7bd 746a e2bd e57c c53c 038c 9c3d
000002e0: c0c1 21be 3b42 3dbd 9d6c 28be 316b b13c
000002f0: 46d1 1f3e b78f e4be 4471 01be dc09 90be
00000300: 3f09 803d 3f3f 883d 263b 553e 189c 813a
00000310: 7ab6 1dbc 40ab aa3d 944b ab3d 4182 53be
00000320: 4241 e33d dd70 bcbe 76e6 9439 f942 4f3e
00000330: 3161 cbbd 6caf 233e ce7e aa3b d6d9 9c3d
00000340: b356 37bb 6aba 043d b54c d7bd 8ca1 e53d
00000350: 25b8 c43d 865e 0d3e f763 ec3c 1bb3 313d
00000360: 67b8 4e3c 6edc 703c c73a 2ebe 8cc7 313d
00000370: 9e24 e2bd fe33 de3d 436a 6d3d 83e5 023e
00000380: 8f57 0ebe 1001 a13d a995 bbbd 4656 fcbd
00000390: e96a e7bd f99e 37bc 3900 3abe 8e46 8f3d
000003a0: d90a 2ebe 8b85 573e 4b7e 263e b1ca fcbd
000003b0: aec8 26be a08f e2bd b22b 3bbe d8c7 dd3d
000003c0: d677 f3bd c1d9 153d ef31 883e f2d6 593d
000003d0: 85d5 29be 85f3 9bbe 6954 33be b19b 0c3e
000003e0: de7b 38bd 3c0d a3bd 246b c4bd d359 983d
000003f0: 2346 84be 8c49 7f3b 516f dcbc 63fc 81bd

edgeconv1.dynamicgraphconv.nn.convnetwork.0.bias f4 [64]
-0.011936026 0.05811598 -0.39396647 -0.08168565 -0.17798543 0.24192977 -0.18479082 -0.18966936
-0.13389929 -0.04191357 0.0006881729 0.20721123 0.35267156 -0.004436154 0.20793815 -0.10444335
0.009404484 -0.040965248 -0.014538441 -0.03655353 -0.30067578 0.10105573 -0.08522193 0.087161206
-0.19036524 -0.34591952 -0.15100469 -0.40067676 0.06751371 -0.11128159 0.1497457 -0.17582522
-0.1761038 0.22393997 0.00879998 -0.13298582 -0.21421538 0.18268965 0.004476128 -0.25191355
-0.09390013 0.246941 0.16717252 0.059121143 0.22663806 -0.041011862 0.09434408 -0.1156447
-0.018671893 -0.2073161 -0.14277034 -0.049443122 0.12434445 0.10698625 0.0554732 0.12431359
-0.084639244 0.116962135 -0.082906365 -0.05592913 -0.11164995 -0.11493772 0.05647551 0.1626183
00000000: 528f 43bc 060b 6e3d f9b5 c9be ce4a a7bd
00000010: d041 36be 70bc 773e ce39 3dbe af38 42be
00000020: e51c 09be 90ad 2bbd 8066 343a 2e2f 543e
00000030: 5e91 b43e 285d 91bb bded 543e 65e6 d5bd
00000040: 4415 1a3c 2dcb 27bd a432 6ebc 27b9 15bd
00000050: 2df2 99be 4ef6 ce3d d688 aebd 9381 b23d
00000060: 1bef 42be 5d1c b1be f9a0 1abe 8125 cdbe
00000070: a144 8a3d 9ae7 e3bd f056 193e 870b 34be
00000080: 8e54 34be 8550 653e cb2d 103c 6f2d 08be
00000090: 475b 5bbe ff12 3b3e 7cac 923b d0fa 80be
000000a0: b64e c0bd 1ade 7c3e 462f 2b3e 0329 723d
000000b0: cf13 683e 0efc 27bd 7837 c13d 21d7 ecbd
000000c0: ccf5 98bc ac4a 54be 6332 12be df84 4abd
000000d0: 4ea8 fe3d 9b1b db3d de37 633d 2098 fe3d
000000e0: 5757 adbd d889 ef3d d0ca a9bd f215 65bd
000000f0: bba8 e4bd 7864 ebbd dd52 673d 6985 263e

edgeconv1.dynamicgraphconv.nn.convnetwork.1.weight f4 [64]
1.0186216 1.0076782 0.88092536 0.8750909 1.0656352 0.92350215 0.847737 0.9196409
0.88750446 1.0672674 0.9334745 1.0476915 0.9431567 1.0738863 0.9707112 0.96664864
0.8460674 0.9786625 1.0261073 1.077326 0.9803825 0.9555508 1.0621085 1.14386
1.110263 1.0050617 0.97907346 0.9790058 1.046499 1.0236923 1.0554582 0.83099526
1.0286351 1.1526693 1.034414 1.0638081 0.8236317 0.9472865 0.9359131 1.0093911
0.89497125 0.94417584 0.9708447 1.0679455 1.1352853 1.0391176 1.0770236 1.0685809
1.0145124 0.94869226 1.0286748 1.0007824 0.92292905 1.0441266 0.94759715 1.1604989
0.8712694 1.0414397 1.03107 1.0345438 1.0827119 0.8240231 1.2067122 0.97976184
00000000: 3162 823f 99fb 803f 5384 613f f505 603f
00000010: bc66 883f a36a 6c3f 4b05 593f 966d 6b3f
00000020: 7e33 633f 389c 883f 2ff8 6e3f c11a 863f
00000030: b872 713f 1b75 893f 8780 783f 4976 773f
00000040: e097 583f a089 7a3f 7c57 833f d2e5 893f
00000050: 59fa 7a3f fa9e 743f 2cf3 873f 016a 923f
00000060: 191d 8e3f dda5 803f 8fa4 7a3f 20a0 7a3f
00000070: aef3 853f 5908 833f 4119 873f 1bbc 543f
00000080: 51aa 833f ab8a 933f ae67 843f dd2a 883f
00000090: 87d9 523f 5e81 723f 0098 6f3f ba33 813f
000000a0: d61c 653f 82b5 713f 4789 783f 70b2 883f
000000b0: 0751 913f ce01 853f e9db 893f 42c7 883f
000000c0: 8bdb 813f 7fdd 723f 9eab 833f a319 803f
000000d0: 1445 6c3f f1a5 853f ba95 723f 3a8b 943f
000000e0: 830b 5f3f e54d 853f 1afa 833f ee6b 843f
000000f0: 4e96 8a3f 2ef3 523f 8c75 9a3f acd1 7a3f

edgeconv1.dynamicgraphconv.nn.convnetwork.1.bias f4 [64]
0.0032189386 -0.033331882 -0.08008743 -0.2811654 -0.13328056 0.014063929 -0.185673 -0.3208052
-0.13060653 -0.061099626 -0.27170888 -0.12677921 -0.10779526 0.13354795 -0.23086141 -0.07486033
-0.17688207 -0.20024122 -0.054250717 -0.26427707 -0.46694812 -0.25332713 -0.036735028 0.095461205
0.1934185 0.06424891 -0.20123327 -0.06766168 -0.16734216 -0.11946626 -0.2766338 -0.17563598
-0.09900051 -0.0020449106 0.02457688 -0.073539175 -0.17687644 -0.06151945 -0.0083191795 -0.017675461
-0.08931574 -0.06903356 -0.28175798 -0.18644303 0.033185016 -0.033428438 -0.078138955 -0.29081666
-0.09385549 0.09879619 -0.12055522 -0.24245785 -0.14474913 0.0300631 0.031620592 0.014401502
0.05864666 0.0074478905 -0.13335043 -0.1834057 0.16801348 -0.037500322 0.012563537 -0.038372643
00000000: d4f4 523b 0387 08bd e104 a4bd e9f4 8fbe
00000010: b37a 08be 656c 663c 1021 3ebe 9440 a4be
00000020: b8bd 05be 9a43 7abd 6d1d 8bbe 69d2 01be
00000030: c3c3 dcbd cbc0 083e ef66 6cbe 5f50 99bd
00000040: 9320 35be 090c 4dbe 0036 5ebd 534f 87be
00000050: d313 efbe 18b4 81be 7877 16bd 2a81 c33d
00000060: 800f 463e ef94 833d 1810 4ebe 3592 8abd
00000070: be5b 2bbe baaa f4bd f2a2 8dbe ebd9 33be
00000080: c8c0 cabd e803 06bb 7455 c93c b59b 96bd
00000090: 191f 35be d2fb 7bbd 2b4d 08bc 21cc 90bc
000000a0: 2ceb b6bd 7861 8dbd 9542 90be ecea 3ebe
000000b0: 03ed 073d 42ec 08bd 5107 a0bd ece5 94be
000000c0: 4f37 c0bd a855 ca3d a8e5 f6bd df46 78be
000000d0: 1e39 14be e446 f63c 9884 013d 47f4 6b3c
000000e0: 7b37 703d 6f0d f43b 048d 08be b4ce 3bbe
000000f0: ba0b 2c3e f099 19bd 4bd7 4d3c a22c 1dbd

edgeconv1.dynamicgraphconv.nn.convnetwork.1.running_mean f4 [64]
-0.2500906 -0.6982956 -0.32259545 0.09783372 -0.047720533 0.25315177 -0.11956414 0.09120123
-0.11409792 -0.22702344 0.23838173 -0.4901518 0.46894386 -0.07077376 0.3399085 -0.10230187
0.1794965 -0.08320579 0.44728723 0.0061709704 0.2243025 -0.33332866 -0.31550512 -0.2502721
-0.4741646 -0.53108805 -0.070784874 -0.8850276 0.14463012 -0.22681817 -0.0033029285 -0.6255069
-0.6023973 -0.15159966 -0.2775166 -0.261984 -0.2074555 0.19087803 -0.49289447 -0.5320844
-0.075234875 0.33136368 0.3249772 -0.5000182 -0.22171253 -0.45053592 -0.24364682 -0.2333289
0.135621 -0.26315942 -0.5398398 0.14142038 -0.26242954 -0.07185322 -0.33212084 0.03474597
-0.036177427 -0.33562988 0.18596089 0.06838704 -0.92961985 -0.55075383 -0.4542355 0.21794294
00000000: e00b 80be 80c3 32bf 3b2b a5be 0c5d c83d
00000010: 9b76 43bd 1c9d 813e 0bde f4bd b6c7 ba3d
00000020: 2cac e9bd d578 68be 571a 743e 2df5 fabe
00000030: 6919 f03e d5f1 90bd 7d08 ae3e a583 d1bd
00000040: eecd 373e cc67 aabd d502 e53e da35 ca3b
00000050: 8eaf 653e 0eaa aabe e389 a1be aa23 80be
00000060: b4c5 f2be 63f5 07bf a9f7 90bd 2b91 62bf
00000070: eb19 143e 0643 68be f275 58bb 3821 20bf
00000080: b636 1abf f13c 1bbe a816 8ebe c422 86be
00000090: 376f 54be 8875 433e aa5c fcbe af36 08bf
000000a0: be14 9abd 80a8 a93e 6963 a63e 3101 00bf
000000b0: 9c08 63be a5ac e6be 8d7e 79be c5ed 6ebe
000000c0: 3be0 0a3e d5bc 86be f132 0abf 81d0 103e
000000d0: 2a5d 86be c827 93bd be0b aabe ca51 0e3d
000000e0: c82e 14bd aed7 abbe 886c 3e3e 810e 8c3d
000000f0: 91fb 6dbf 34fe 0cbf 8e91 e8be 6f2c 5f3e

edgeconv1.dynamicgraphconv.nn.convnetwork.1.running_var f4 [64]
0.078430004 0.36682364 0.11152732 0.3759891 0.20913438 0.10714625 0.16417408 0.29544815
0.15695722 0.21195954 0.16184933 0.2634935 0.16790426 0.5299996 0.21884535 0.5023563
0.12937893 0.17262325 0.10694881 0.12626244 0.16664274 0.18179026 0.18015732 0.15247855
0.11665116 0.12103804 0.19148809 0.172889 0.13199021 0.14684233 0.16702881 0.17184408
0.12376861 0.14212391 0.2604518 0.13052638 0.15991545 0.16008691 0.23088726 0.24873303
0.21577743 0.19743636 0.123209134 0.1851648 0.22478613 0.34031284 0.22215563 0.19491647
0.10090082 0.17281163 0.19781142 0.36326513 0.19414778 0.14219913 0.22444634 0.14960049
0.09411648 0.25125405 0.14712812 0.20046203 0.29304984 0.09971594 0.28326187 0.12485288
00000000: e99f a03d 4fd0 bb3e 7068 e43d a581 c03e
00000010: 5327 563e 7e6f db3d 401d 283e fb44 973e
00000020: 65b9 203e ec0b 593e d5bb 253e 9fe8 863e
00000030: 18ef 2b3e 0eae 073f ff18 603e 6c9a 003f
00000040: e97b 043e 26c4 303e fa07 db3d f14a 013e
00000050: 65a4 2a3e 3a27 3a3e 297b 383e 5623 1c3e
00000060: cee6 ee3d cbe2 f73d 7415 443e d009 313e
00000070: 7128 073e d65d 163e 9a09 2b3e e5f7 2f3e
00000080: 667a fd3d ee88 113e f059 853e b5a8 053e
00000090: e0c0 233e d3ed 233e b66d 6c3e dfb3 7e3e
000000a0: c2f4 5c3e c22c 4a3e 1255 fc3d d79b 3d3e
000000b0: 562e 663e 7c3d ae3e c47c 633e 2f98 473e
000000c0: 17a5 ce3d 88f5 303e 148f 4a3e e3fd b93e
000000d0: adce 463e a69c 113e 43d5 653e df30 193e
000000e0: 24c0 c03d 5fa4 803e c1a8 163e eb45 4d3e
000000f0: a10a 963e df37 cc3d b307 913e deb2 ff3d
