models/PairWiseMLP.256.128.101e-CloseByPion200PU.15.400f.onnx (onnx, 199676 bytes, 7 tensors)

0.weight f4 [63]
00000000: 6fa0 2e3d aa97 503c a547 7040 89e9 b4bd
00000010: 5831 bb3d 1d93 953f d0aa d73f 6d22 023f
00000020: 8532 0641 6f8b f9bd 1fa7 ed3c a84a 313d
00000030: 2eba 63bd 6808 ebbc 520e 7740 b98d 7c40
00000040: ae97 5440 c451 3c40 e929 7340 4d44 4c3c
00000050: 6620 853e c6f5 d840 ed0a 5c40 95d6 ec3e
00000060: 4ac1 ac40 44d0 2f3c 904b a53d 4609 c8bc
00000070: f6f2 193d 9c8b 45bc 63d9 ac3d 837b e2bd
00000080: aa3d 5d3f 3686 d43d 080a 0440 2a84 76bc
00000090: d98e 7d3f f1c0 d43f 3fd2 223b fcd8 d33c
000000a0: f18d ce3f 9b19 f53a eba6 0e3d 3a6b c03f
000000b0: 033e 253e 07c2 51be d9f3 0b3d ae07 16bd
000000c0: 7458 afbd ef8d 88bd 334f 68bd 4076 133b
000000d0: a6ed 1fbd 56c7 e03c d9e4 4a3e 8b72 e03d
000000e0: 34b8 43be be53 96bd 7d60 ba3d 0c6f b7bd
000000f0: e697 0b41 e98f 8a40 a46c 8740
0.04263347 0.012731472 3.7543728 -0.08833606 0.09140271 1.168552 1.6849003 0.5083378
8.387334 -0.12184798 0.029010354 0.04328409 -0.055597477 -0.028690532 3.860249 3.94615
3.3217578 2.9424906 3.799433 0.012467456 0.2600128 6.7800016 3.4381669 0.46257463
5.398595 0.010730807 0.08071053 -0.024418484 0.03758522 -0.012057211 0.08439901 -0.11058714
0.86422217 0.10377161 2.0631123 -0.015046159 0.99046093 1.6621381 0.0024844555 0.025860302
1.6137067 0.0018699648 0.034827154 1.5032723 0.16136937 -0.20484172 0.034168098 -0.036628418
-0.08561793 -0.06667697 -0.056716155 0.0022500902 -0.039045 0.0274388 0.19813861 0.10959347
-0.19113237 -0.07340191 0.09100435 -0.089567274 8.724585 4.330067 4.232012

0.bias f4 [63]
00000000: ff70 063d 0acd c5bb 9318 86c0 e738 92bc
00000010: 2cb0 413d 91f7 363e fe3e 8b3f e62c 01bf
00000020: 76c4 0640 c42e 09bd d5d5 9f3a f42f a7bb
00000030: 7eaa f6bc 3228 c3ba 78e9 b13f 9365 a53f
00000040: 2a6f 693f 04e6 873f 53b2 94c0 4ecc 12bc
00000050: 51ab c13d 50f2 953d fb90 a13f b88d 8bbd
00000060: 1721 0540 fe9d 7e3c 8acf e03c fa06 acbc
00000070: f21f 0a3c 724c 23bb 7aab 123d b021 8dbd
00000080: 26af a43e c2d9 803b e51f abc0 295b 94bc
00000090: 8b66 d73e f509 a0c0 0643 37bb 73c3 a2bb
000000a0: 395c a6c0 c128 3aba a129 88bb 7bf1 95c0
000000b0: 8d41 aa3d c1d1 45bd 0089 a53c 35f3 6abc
000000c0: 2277 2fbd 4224 cebb 45a4 643c 13f3 473c
000000d0: d7a3 9dbc ffc4 afba 0f2b 823d b944 093d
000000e0: 73be 75bd 0485 01bd ff21 013d bb0a fdbc
000000f0: 6aa0 3940 99b3 c73f a306 b73f
0.032822605 -0.0060364055 -4.1905 -0.017849399 0.04728715 0.17867877 1.0878599 -0.50459135
2.105741 -0.033491865 0.0012194464 -0.005102152 -0.030110594 -0.0014889298 1.3899374 1.2921623
0.9118525 1.061707 -4.646768 -0.008959843 0.09456504 0.07321608 1.262237 -0.0681414
2.0801446 0.015540598 0.027442712 -0.02099942 0.008430468 -0.002491739 0.035808064 -0.06891191
0.32164878 0.0039322088 -5.3476434 -0.018109875 0.42070422 -5.0012155 -0.0027963533 -0.004967147
-5.1987576 -0.000710141 -0.004155353 -4.6857276 0.08313284 -0.04829574 0.020206928 -0.014340212
-0.042838223 -0.0062909434 0.0139551805 0.0122039495 -0.019243164 -0.001341015 0.06355869 0.033512805
-0.05999608 -0.031620994 0.03152656 -0.030888906 2.900416 1.5601684 1.42989

1.weight f4 [256, 63]
00000000: b46d 8bbe 90ed 96bf 3e41 68c0 d1f8 89c0
00000010: fc6d a13f a2e6 ed3e 91dc 4bbf 0fa0 6fbe
00000020: d85e bc3f dd92 21c0 3b69 a93f 7518 62bf
00000030: 3ca0 19c0 eadc 763f 7278 0ac0 4533 cabf
00000040: 88dc 603f b837 393f ab16 09c0 005a 213f
00000050: ae8f 56c0 8052 703f 75ef b8bf d79c 263e
00000060: a85c f4bf 3f68 88be 13e1 1dbf dca3 033f
00000070: daf2 6d3e eef5 3e3f 00ed 8cbe 57b2 f53f
00000080: 1aef 8ebf fc35 52bd e54d 85bb dcba 193f
00000090: 3658 6dbe 8943 35bf 4093 dbbf bb25 e23e
000000a0: 33a1 6a3f 9f90 3fbe 5eae 8f3f 138d ab3f
000000b0: 7dc1 66bf 5a08 72bf 1637 12c0 627b c43f
000000c0: 62c9 653f ce81 773f 8263 02c0 93b8 e4bf
000000d0: 5265 e23d d610 5d3f ebb0 d63f 58ef c13e
000000e0: df58 ccbf 2044 d1bf bb13 0bc0 9b17 a8bf
000000f0: 6586 ab40 1d28 3040 319d 873f a13f 29be
00000100: 1937 b63f e785 1cc0 76a7 a8bc a725 a3c0
00000110: 57da f83e 5c01 abbf 6075 84bf 92da 813f
00000120: 236a efbf 9b3c 85bf dfce d6bf c203 8ac0
00000130: 01e4 b940 4322 04bf 297a 97bf d041 d43f
00000140: b4a7 2040 5b20 c8c0 3256 59c0 0831 4540
00000150: de25 4c3f 8cf6 db3f bf2c d9c0 7b43 4dbe
00000160: 5c49 72bf e816 2740 dd89 9ec0 1e56 0c40
00000170: 52ae cec0 4c6a 683f ae2e 6e3f a11a 1340
00000180: 63dc 783f 1862 933f 7f6c ea3f 1538 d33f
00000190: 4b4e be3f 4c09 d03e e688 1840 62d2 c5be
000001a0: 2926 14bf 5b6e 1e40 a59f ae3e d728 7740
000001b0: 1a1e 99bf a8ce 8bbf e02e 0740 2976 f53f
000001c0: 171e 9cbf ed56 65c0 8335 0540 7442 45c0
000001d0: bca4 d8bf 3223 acbf 0cf8 0840 e645 0a40
000001e0: 3ef1 923f 34fc b53f fe7a 4e40 0ef0 c740
000001f0: b05f 1140 e06d c240 3d56 07bf fc43 4f3f
00000200: 8e26 60c0 dd89 4a3f 10f2 4240 9e69 6f3f
00000210: 4437 29c0 ae34 9b40 6f7f 353f cec9 b4bf
00000220: 5cc8 b53f e7f1 6240 a545 9cbf 89a6 0b40
00000230: 5b3d adc0 c38b 5bc0 9ca2 4140 049f e23f
00000240: 6d87 96bf 7426 04c0 6b39 7dbf dd5f 4440
00000250: 2cd1 02c0 d9bb bcbf 850f 8cc0 ac12 34be
00000260: e3d0 3cc0 5f4a 1bbf a140 cd3f 0d65 c93f
00000270: d49a 1c3f 8715 a33f 8af5 cabe 94e0 f6be
00000280: c355 3ac0 d481 50bf 0438 063e 5b3a 56bf
00000290: 2725 1ec0 0eda 29c0 782a 053f 2bbd ddbf
000002a0: 38bc 73bf a4a3 943f b8d6 903e d248 3fc0
000002b0: 9b5d 8cbe d6b3 9fbe d29a 90bf bf75 1c3e
000002c0: b6c6 cf3f 3a2b 8cbf 05db 0140 1e1f 533f
000002d0: 476f 06c0 342f 27c0 4357 2cc0 a4ec 55bf
000002e0: ef64 0040 2114 0ac0 2eb6 bd40 76a2 0f40
000002f0: 7506 1f3f b527 913e d209 b43f eacc 7bc0
00000300: e554 c93d 7c2a 503e 9629 9a3f 513e bfbf
00000310: cb8b 85be 095e 0340 2344 3fbe 3158 893f
00000320: 1d9b bd3e bf6b 153e b3b3 163f 50dc 80bc
00000330: 30f2 0fbf ab74 4d3f 97f8 643e 0be6 92bf
00000340: b6e4 513f c6b2 a23e 696d 833f 5819 cbbe
00000350: 9668 6abf bfe3 4cbf c531 febd eb9e 673d
00000360: 511e c43e de79 843f 29c3 bf3f a397 8e3f
00000370: da57 2cc0 d1f4 cebd aa73 dd3f ba73 f13d
00000380: ca24 893d aea4 f9be f4b6 a03e 6e50 4f3e
00000390: 11cf 173f 2b7f 363f aa91 24bf cd26 e13c
000003a0: 118f 3d3f 2fbe 27be e71e 593f 1502 513f
000003b0: 3305 d5bf 44b7 97bf d4df 643f 25d6 7fbe
000003c0: fc3f b13f deb1 6ebe 3ef7 5e3f 685e cdbe
000003d0: 9d28 c33f a72c 33bf bf30 16c0 4093 8abd
000003e0: f260 633d e00f 0e40 4a9d a03f ac5b 383e
000003f0: 9804 bfbe cb40 a93e 276a a3c0 c463 5dc0
-0.27232134 -1.1791248 -3.628982 -4.311623 1.261169 0.4646502 -0.7963343 -0.23400901
1.4716444 -2.5245888 1.3235239 -0.8831857 -2.400405 0.9643084 -2.1636014 -1.5796896
0.87836504 0.72350645 -2.1420085 0.63027954 -3.3525195 0.93875885 -1.4448076 0.16270767
-1.9090776 -0.26642033 -0.6167156 0.51421905 0.23237172 0.7459401 -0.27524567 1.919505
-1.1166718 -0.051321015 -0.0040681236 0.6005075 -0.23178181 -0.70806175 -1.7154312 0.4416941
0.9165222 -0.18707512 1.1225088 1.3402427 -0.9013899 -0.94543993 -2.2846122 1.5350153
0.8976041 0.9668244 -2.0373235 -1.7868828 0.110544816 0.86353815 1.6772741 0.37877917
-1.5964621 -1.6348915 -2.1730793 -1.3132204 5.3601556 2.7524483 1.0594846 -0.16528179
1.4235564 -2.4456728 -0.020587664 -5.098346 0.4860408 -1.335979 -1.034832 1.0144827
-1.8704265 -1.040912 -1.6781882 -4.3129587 5.8090825 -0.5161478 -1.1834155 1.6582584
2.5102358 -6.2539496 -3.395886 3.0811176 0.7974528 1.7184615 -6.786712 -0.20045273
-0.9464319 2.610773 -4.954329 2.1927562 -6.4587793 0.90787196 0.9303998 2.2985003
0.97211283 1.1514311 1.831436 1.650149 1.4867643 0.40632093 2.3833556 -0.38637072
-0.5787073 2.4754856 0.34106174 3.8618677 -1.1962311 -1.0922441 2.112236 1.9176685
-1.2196683 -3.5834305 2.081391 -3.082181 -1.6925273 -1.3448241 2.1401396 2.1605163
1.1479871 1.4217591 3.2262568 6.2480536 2.2714653 6.0759125 -0.52865964 0.8096311
-3.5023532 0.7911661 3.0460243 0.93520534 -2.6439981 4.8501806 0.70897573 -1.4124086
1.420177 3.5460145 -1.2208754 2.1820395 -5.4137397 -3.4304054 3.02555 1.7704778
-1.1760079 -2.064847 -0.9891574 3.068351 -2.0440168 -1.4744827 -4.3768945 -0.17585248
-2.9502494 -0.60660356 1.6035348 1.5733963 0.6117375 1.2740945 -0.39640456 -0.48218215
-2.9114845 -0.814481 0.13107306 -0.83682793 -2.4710176 -2.653934 0.5201793 -1.7323354
-0.95209074 1.1612439 0.28288817 -2.9888196 -0.27415165 -0.3119189 -1.1297247 0.15279292
1.6232517 -1.0950692 2.028993 0.82469356 -2.1005418 -2.612256 -2.692826 -0.8356421
2.0061605 -2.1574786 5.9284887 2.2442908 0.6211923 0.28350607 1.4065497 -3.934382
0.098306455 0.20328707 1.2043941 -1.4940892 -0.26083216 2.0526145 -0.18678336 1.0730039
0.37032405 0.14591883 0.5886795 -0.015730053 -0.56228924 0.80256146 0.22360454 -1.1476454
0.8198961 0.31777018 1.0267764 -0.39667773 -0.91565835 -0.8003501 -0.124118365 0.05654804
0.3830438 1.0349691 1.4981433 1.1140026 -2.692862 -0.10105289 1.7300923 0.11789651
0.0669647 -0.48758453 0.31389582 0.20245525 0.59300333 0.7128779 -0.64284766 0.027484322
0.74046427 -0.16381143 0.8481278 0.816438 -1.6642212 -1.1852803 0.89404035 -0.24984033
1.3847651 -0.23310038 0.8709601 -0.4011109 1.5246769 -0.6999001 -2.3467252 -0.06766367
0.055512376 2.219719 1.2548001 0.1800372 -0.37308192 0.33057246 -5.106708 -3.4592142

1.bias f4 [256]
00000000: f043 8dc0 f218 4fc0 6b22 5cc0 8640 39c0
00000010: 302c acc0 823a 2dc0 19cb 40c0 fa55 a4c0
00000020: d4f3 27c0 e06e 47c0 6408 68c0 8c6c 84c0
00000030: bde5 453f 78db 62c0 5a21 8ec0 bc7c 93bf
00000040: 78dc a2c0 fee3 533f a23f 09c0 02f1 48c0
00000050: 6689 00c0 06c6 3dc0 c481 16c0 32ce 45c0
00000060: 677f a5c0 bece 77c0 084d b0c0 10ed 71c0
00000070: 21f6 89c0 ada9 2ac0 2642 8dc0 4cf4 52c0
00000080: b8d2 97c0 61ca 43c0 347b 82c0 165a 963f
00000090: b01a 4dc0 1600 54c0 b934 73c0 537c 70c0
000000a0: 02e5 54c0 9717 41c0 165a 48c0 0810 d0bf
000000b0: 45fe 83c0 f56e 85c0 17b2 74c0 92b4 6ac0
000000c0: 87a3 89c0 a168 82c0 6725 79c0 0c0d 74c0
000000d0: db4c 65c0 89a5 efc0 0e7b 98c0 6010 9540
000000e0: a094 62c0 b895 2bc0 28fe 51bf afc3 47c0
000000f0: 3e27 89be 7d5c 68c0 c206 73c0 d747 92c0
00000100: 4454 5e3e 6b5b 91c0 e11b 8bc0 16af 7bc0
00000110: 1a86 6dc0 dfaf 90c0 43df 73c0 ad85 f3bf
00000120: e7e6 50c0 93e7 7ec0 5387 a3c0 c948 b2c0
00000130: 0ad5 65c0 f738 ab3f 9d89 8ebe 7cd5 4ac0
00000140: 6d1f 4dc0 d0ad 54c0 dc13 74c0 2bb5 5dc0
00000150: 076b b2c0 df4f 57c0 0d39 59c0 a54a 55c0
00000160: 429b 72c0 4cf6 f0bf 4580 82c0 2391 9cc0
00000170: 645d 83c0 a8a5 b0bf 0d2b 61c0 7b10 a4c0
00000180: 1231 1ac0 97f8 c1be f79a 62c0 578c 67c0
00000190: d090 51c0 5615 84c0 68b1 cebf c683 74c0
000001a0: 6565 5ec0 76a9 c4c0 d1d3 97c0 9cf3 babf
000001b0: c387 b2c0 be1f 91c0 0903 c2c0 bf39 98c0
000001c0: b79e b8c0 5b1e 7fc0 293f 52c0 15e5 96c0
000001d0: e3a8 b6c0 be46 10bf 4852 85c0 ee5c 70c0
000001e0: 2d6e 42bf 82c7 74c0 cb57 56bf 3c6e 6cc0
000001f0: 4695 37c0 69eb 60c0 430c 51bf b14f 943f
00000200: afa9 75c0 6bb9 4140 18d5 5dc0 0a80 6bc0
00000210: 1790 14c0 d9e0 84c0 24b3 4ec0 91d3 9ac0
00000220: c4b0 d73f f9a6 86c0 585e 81c0 2c47 39c0
00000230: 08a3 eebf 188a 44c0 cffd 82c0 6b74 7bc0
00000240: 065e 8bc0 a484 34c0 fb0a 9abf d43d 0cc0
00000250: 6104 86c0 3696 8bc0 ba01 bfc0 9215 75c0
00000260: 6b96 98c0 0d6c 83c0 e62b 28bf b4b1 61c0
00000270: 1762 12c0 7f79 71c0 929d 6ec0 1d75 4cc0
00000280: e69d 56c0 1e74 27c0 a36b 8dc0 8d51 69c0
00000290: 3eb5 92c0 9605 a0c0 29d9 80c0 ccef 46c0
000002a0: 753b 94c0 0329 63c0 e1ea 5cc0 4f0c 7fc0
000002b0: fd07 8dc0 d277 5ec0 04c8 a8c0 67f8 76c0
000002c0: 51e1 50c0 bcda 2ec0 988d 8ec0 ebb9 4ec0
000002d0: 2223 68c0 7e68 f4bf f266 81c0 69f5 54c0
000002e0: a5d3 54c0 0bb9 74c0 c54f 73c0 b2a0 6cc0
000002f0: efc4 52c0 81c9 b040 c819 89c0 2be8 81c0
00000300: 7afa 83c0 8671 65c0 0d29 7bc0 cfff 82c0
00000310: c2af 1ac0 fc55 88c0 2ea0 40c0 c46d b540
00000320: d49d 46c0 af43 b0c0 2596 adc0 abd9 6fc0
00000330: 3ac3 5ac0 1c8f 43c0 83fa 82c0 b08c 75c0
00000340: 717e 1abf e38f 3ac0 531a a1c0 6ad4 0bc0
00000350: 1047 55c0 bc9f 3cc0 194c a240 cfe1 71c0
00000360: 7529 6ec0 e3af 65c0 6de0 06c0 79e2 8ac0
00000370: b68a 70c0 f0c4 3ac0 3205 85c0 3363 54c0
00000380: 3ce9 aac0 71af 85c0 ebc5 5dc0 064b 3ec0
00000390: 2555 2ec0 a900 66c0 cc6b adc0 15b3 72c0
000003a0: 9048 4440 e1ac 80c0 1f2e 97c0 8faa 8cc0
000003b0: 46b7 80c0 cd97 62c0 8c88 acc0 d585 9dc0
000003c0: d70d 2fc0 d7ce 28c0 a209 6ec0 c4cf a5bf
000003d0: 2670 5fc0 4f96 9ec0 11f8 6fc0 6ac4 0b40
000003e0: f757 9ec0 2cfe 72c0 d87d 70c0 e71d 88c0
000003f0: e459 afc0 b480 64c0 6769 97c0 7509 0f40
-4.414543 -3.2358975 -3.4396007 -2.8945632 -5.380394 -2.706696 -3.012396 -5.135495
-2.624257 -3.1161423 -3.6255121 -4.1382504 0.7730368 -3.5446453 -4.441571 -1.1522441
-5.0894127 0.82769763 -2.1445088 -3.13971 -2.0083861 -2.9652114 -2.3516703 -3.0907102
-5.171802 -3.8719935 -5.509403 -3.7800941 -4.311295 -2.6666062 -4.4143248 -3.2961607
-4.7444725 -3.0592272 -4.0775394 1.1746242 -3.2047539 -3.3125052 -3.800093 -3.7575881
-3.3264775 -3.0170648 -3.1304984 -1.6254892 -4.1247888 -4.1697946 -3.8233697 -3.6672711
-4.301212 -4.075272 -3.8929079 -3.8132963 -3.582816 -7.488957 -4.7650213 4.658249
-3.5403214 -2.681013 -0.82028437 -3.1213186 -0.26787752 -3.630645 -3.7972875 -4.5712695
0.21711832 -4.5424094 -4.347153 -3.9325614 -3.71131 -4.5214686 -3.8105018 -1.902517
-3.2640932 -3.9828842 -5.110269 -5.571385 -3.5911279 1.3376759 -0.27839366 -3.16928
-3.205043 -3.3231087 -3.8137121 -3.4641826 -5.575565 -3.36425 -3.394107 -3.332681
-3.7907262 -1.8825164 -4.078158 -4.892717 -4.10515 -1.3800554 -3.5182526 -5.127012
-2.409245 -0.37884971 -3.5407083 -3.6179407 -3.2744637 -4.1276045 -1.614789 -3.8205428
-3.4749386 -6.145686 -4.7446065 -1.4605594 -5.5790725 -4.535125 -6.0628705 -4.757049
-5.7693744 -3.9862278 -3.285105 -4.715464 -5.708116 -0.56357944 -4.166294 -3.755672
-0.75949365 -3.824677 -0.8372771 -3.6942282 -2.868486 -3.5143683 -0.81659335 1.158682
-3.8384817 3.026942 -3.4661312 -3.67969 -2.3212945 -4.152447 -3.2296839 -4.838326
1.685082 -4.2078824 -4.0427666 -2.894969 -1.8643503 -3.0709286 -4.0934825 -3.9289806
-4.3552275 -2.8205957 -1.2034601 -2.1912737 -4.1880345 -4.3620863 -5.968961 -3.8294415
-4.7683616 -4.10694 -0.65691984 -3.5264711 -2.287237 -3.7730405 -3.7283673 -3.194648
-3.3533874 -2.6164622 -4.4193892 -3.6456025 -4.5846243 -5.000682 -4.026509 -3.108386
-4.632258 -3.5493782 -3.4518359 -3.9851263 -4.407225 -3.4760633 -5.274416 -3.8589113
-3.2637522 -2.7321005 -4.4547844 -3.2300975 -3.6271443 -1.9094388 -4.0438166 -3.3274786
-3.3254178 -3.8237941 -3.8017437 -3.697308 -3.2932699 5.5245976 -4.284397 -4.059591
-4.1243258 -3.585054 -3.9243805 -4.0937266 -2.4169774 -4.260496 -3.0097766 5.669649
-3.103383 -5.508262 -5.424578 -3.7476604 -3.4181657 -3.0556097 -4.09308 -3.836712
-0.60349184 -2.9150321 -5.0344634 -2.1848397 -3.3324623 -2.9472494 5.0717893 -3.7794073
-3.7212803 -3.5888603 -2.1074479 -4.3401456 -3.7584662 -2.91827 -4.156884 -3.3185546
-5.340971 -4.177666 -3.465205 -2.973329 -2.7239468 -3.5937903 -5.419409 -3.7921803
3.0669289 -4.0211034 -4.72438 -4.39582 -4.0223722 -3.5405152 -5.3916683 -4.922587
-2.7352197 -2.6376245 -3.719338 -1.295403 -3.49122 -4.955848 -3.7495158 2.1838632
-4.948238 -3.7967634 -3.757681 -4.25365 -5.479723 -3.5703554 -4.7316165 2.2349522

3.weight f4 [128, 256]
00000000: b2d1 26bf 68bc f5bf 97a7 c8be 1378 0abf
00000010: 0e54 92bf 9fca 00bf 99a8 05bf dac5 97bf
00000020: a70d 9c3f 4112 a0bf 428b cd3e 2926 66bd
00000030: 4b36 a5c0 8dc3 87bf 4aed 01c1 f2ee 2e3f
00000040: 765a fabe b670 56c0 09bd 28c0 5779 0140
00000050: d991 98c0 3d76 4bbf 5cd9 8fbf c1ef aabf
00000060: 54e0 04c0 ac04 0140 8830 58be fc9c 38bf
00000070: 6b1b 043f 8a45 35bf 15a4 4c3e f83a 72be
00000080: 56df 60bf 00c9 d7bf a047 c3be bff6 8c3e
00000090: 89b8 1940 a642 82be f32c 213e 37ad 70bf
000000a0: f656 593f 4e95 a4be d06d 43be 9354 aebf
000000b0: 5604 853f 7586 ac3f ab4f 5abf a62f 61bf
000000c0: e847 ccbf 7071 c2bf 784c a8be 84be c3be
000000d0: e4c1 aebf d309 5dbf bd27 85bf 3500 19c0
000000e0: 1776 57bf 274c 6fc0 3721 61c0 12b5 b63e
000000f0: 87c5 f5bf 3603 a5be f729 f4be b41d 01be
00000100: e1af 20c0 c3d0 30bf 03a2 debe c690 d0be
00000110: 61ca 9e3e a52e 94bf 3928 29bf 682c 6140
00000120: b555 0a3d cf2e ad3e c69f 853e 7b24 f83f
00000130: 20eb 053f ab70 b8c0 49d6 1fbf 6681 1ebf
00000140: 6a93 61bf 7df8 963e e173 90be 11cb 55bf
00000150: cad5 6dbe 8756 693f 5e3b abbe d056 dabe
00000160: 67e5 963f a893 2dbf 15c9 6a3d bc3d 163f
00000170: d5be a6bf 2371 a6c0 e77f 69be 36f0 853f
00000180: 943c f13f 9bf2 b13e 05f9 20bf 85f2 c83c
00000190: e2c2 0bbf ef4e 94bf ebd5 603f 9af8 f7bd
000001a0: 51ce 60be 9f94 89bd fd11 5fbf 7df4 1bc1
000001b0: a626 a740 8457 61c0 84b7 18be 0d7a b0be
000001c0: 6095 75be f3c4 0cbe 61f6 87be bea2 00bf
000001d0: a67d 6ebe 3a9f 8dbf 9f45 9c3c 54a8 bebf
000001e0: 593a 023f ff8f 6bbf 19f3 aec0 e8c5 88bd
000001f0: 2a72 063e 7552 d53c 24c0 aebe f5ea 86c0
00000200: d03e b1be 6dbd 07c0 1dc4 58be 3cb0 16bf
00000210: 945d 2e3f f32a 303f 0645 b4be 9394 93bb
00000220: 7df9 8dbf e904 a7be d581 12c0 3ae5 5f3f
00000230: d9d5 923f efbb 97be c67d 43bf 55e8 6abf
00000240: 5e17 0dbf b3ce 68bf c9a3 3a40 b061 cbbe
00000250: 1eb5 91bd 14f6 92be d0ae 41bf de9a f7bd
00000260: 4fed 223f 01a4 5dbf e92b 2cc0 553e ae3f
00000270: 83aa bdc0 ae7e 5e3e 4cec 9dbe 8d2d 0a3f
00000280: 42fe 83c0 82fa e2bf 3beb 52bf 0a64 bb3f
00000290: 7afa 793e 1e76 e43d c033 0ebe b1b0 f8bf
000002a0: 4d56 723d ef28 623f f462 5c3e 47b0 a9be
000002b0: cd3b adbf 2040 23bf 7937 513f 545d 55bf
000002c0: 9ac9 01bf 52d6 3bbf 375a 713d 734f 693d
000002d0: 94d6 a63f ee5f 47be bcbb 393f a8f7 2ebf
000002e0: e80c 583e 864a 4c3f f775 d23e 0046 97bf
000002f0: 749a 623f 1704 edbf 7f30 843e 9966 01bf
00000300: b7c1 48bd 292d 9fbf 9021 10be 5fa6 d4bf
00000310: 0968 3ebf 98a6 5cbf 2c3b d9bd 8fa6 03c0
00000320: 6921 9abd a909 7dbf c8fe fdbe 709d 34bf
00000330: 884a d43e 706b 03c0 c816 cabe c00f 9d3e
00000340: a54c c13f 596f 54bf 5f9f 97bf a7a2 e63d
00000350: 1124 50bc e637 983c 8a53 cfbf a037 8f3e
00000360: 2ad3 243e d735 12bd 9fff d8be 2426 20bd
00000370: 4eb0 343e f526 b63f 6ae6 a33d 7eef 0f40
00000380: 4de8 42bf eb4a 113f e152 233f 6360 5740
00000390: 8d88 163f 6c2f 53be e322 8ebf bf8c 03bf
000003a0: f885 4abf 274a eb3e 9ea4 a1bd 1cbb e3be
000003b0: c4a0 e9bf bf18 3ebe a804 e7be 9af5 43bf
000003c0: 7ada b0bf 9844 8dbf 752b 1dbf 6262 45c0
000003d0: 38f9 dcbe a8eb 61be 06e2 dbbe dd32 18c0
000003e0: 0000 da3e 98d1 3a3f 65ff 393e 6132 87bf
000003f0: 6690 19c0 e0a0 a33e ea73 0740 8d97 26c1
-0.6516372 -1.9198122 -0.3919036 -0.5408947 -1.1431901 -0.50309175 -0.52210385 -1.1857255
1.2191666 -1.2505571 0.40145308 -0.056188736 -5.1628776 -1.0606552 -8.120432 0.6833335
-0.4889714 -3.3506293 -2.6365378 2.023031 -4.7678037 -0.7947729 -1.1238208 -1.3354417
-2.076192 2.0159101 -0.21112263 -0.7211454 0.51604337 -0.70809233 0.19984467 -0.23655307
-0.87840784 -1.6858215 -0.38140583 0.27532002 2.4018881 -0.25441474 0.15739803 -0.94014305
0.84898317 -0.3214516 -0.19084859 -1.361956 1.0391948 1.3478533 -0.85277814 -0.8796333
-1.5959444 -1.5190868 -0.3287084 -0.3823129 -1.3652921 -0.86343116 -1.0402752 -2.3906376
-0.84164566 -3.739023 -3.5176523 0.3568502 -1.9200906 -0.32229012 -0.47688267 -0.12608987
-2.5107348 -0.69068545 -0.4348298 -0.40735453 0.31013778 -1.1576735 -0.66077 3.5183353
0.033773143 0.33824775 0.2609846 1.9386133 0.523119 -5.7637534 -0.6243635 -0.61916196
-0.8811556 0.29486457 -0.2821341 -0.8351298 -0.23226085 0.91147655 -0.3344373 -0.42644358
1.1788758 -0.6780343 0.057320673 0.5868795 -1.3026987 -5.2013106 -0.22802697 1.0463932
1.8846612 0.34755406 -0.62879974 0.024529705 -0.5459424 -1.1586589 0.8782641 -0.12107964
-0.21953703 -0.067178 -0.8713682 -9.7471895 5.223468 -3.5209665 -0.14913756 -0.34468117
-0.23982763 -0.13747005 -0.2655516 -0.50248325 -0.23290119 -1.1064217 0.019076167 -1.489512
0.5087028 -0.92016596 -5.467175 -0.066783726 0.13129488 0.026040295 -0.34130967 -4.2161813
-0.34618235 -2.1209366 -0.21168561 -0.5886266 0.6811154 0.68815535 -0.3520891 -0.0045037954
-1.1091763 -0.32620934 -2.2891743 0.87459147 1.1471511 -0.2963557 -0.7636379 -0.9176076
-0.5511378 -0.909404 2.9162467 -0.39722967 -0.071146235 -0.28703368 -0.7565737 -0.120900854
0.63643354 -0.86578375 -2.69018 1.3612772 -5.9270644 0.21728012 -0.30844343 0.53975755
-4.1247873 -1.7732699 -0.82390183 1.4639904 0.24411955 0.111553416 -0.13886929 -1.9428922
0.059164334 0.8834371 0.21522123 -0.331423 -1.3533875 -0.6376972 0.8172527 -0.8334553
-0.50698245 -0.733739 0.058923926 0.056960534 1.3034234 -0.19470188 0.72552085 -0.68346643
0.21098673 0.79801214 0.41105625 -1.1818237 0.88516927 -1.8516873 0.2581825 -0.50547177
-0.049012866 -1.2435657 -0.14075303 -1.6613272 -0.74377495 -0.861917 -0.10606989 -2.057041
-0.07525904 -0.98842865 -0.49608445 -0.7055273 0.41463113 -2.0534325 -0.39470506 0.3067608
1.5101515 -0.82982403 -1.1845511 0.11261492 -0.012703911 0.018581342 -1.6197369 0.27972126
0.16096178 -0.035695877 -0.42382523 -0.039098874 0.1764538 1.4230639 0.08002932 2.2489924
-0.7613571 0.5675494 0.6379834 3.365258 0.5880211 -0.20623559 -1.1104397 -0.51386636
-0.7911067 0.4595501 -0.07892726 -0.4447869 -1.8252187 -0.18564127 -0.4512074 -0.76546633
-1.3816674 -1.1036558 -0.61394435 -3.0841298 -0.4315889 -0.22062552 -0.4294588 -2.3781044
0.42578125 0.72976065 0.18163832 -1.056225 -2.3994384 0.31958675 2.1164498 -10.412

3.bias f4 [128]
00000000: 48b4 04c0 0dc5 5ec0 b022 f4bf e35c 67c0
00000010: 7140 62c0 4f4f 25c0 51b5 98bf a352 29c0
00000020: df3e 2bc0 9a2a 3cc0 42c9 cdbf 27cf 64c0
00000030: 6c49 20c0 a788 f4bf fcab 46c0 690a 85c0
00000040: 4f5c b7bf 5bb1 59c0 17f9 31c0 a833 05c0
00000050: 12fb 20c0 67fc 9ebf 8191 3fc0 fbe9 81c0
00000060: b790 2ac0 83ab 47c0 77d5 16c0 6a2d 03c0
00000070: 57e7 6fc0 bd49 5bc0 ba8c 09c0 73d2 a0c0
00000080: cce9 cec0 30e9 38c0 ef45 0ac0 5b79 bebf
00000090: d5e6 89c0 3ea9 01c0 18a1 91bf a848 8fbf
000000a0: eab9 a6c0 5514 2cc0 fd06 56c0 2d98 49c0
000000b0: cfa5 2fc0 720d 41c0 391e 26c0 8982 81c0
000000c0: 9499 50c0 c47a 39c0 d249 3ec0 ea05 b6bf
000000d0: 3c86 18c0 d22a 64c0 700b 55c0 1256 31c0
000000e0: 0da6 22c0 a95a 6ac0 2a44 2ec0 f00e 38c0
000000f0: 287b d1bf c3e8 03c0 1163 21c0 db90 34c0
00000100: 9aed 1ac0 80f2 dcc0 1759 53c0 9f6d 10c0
00000110: 3075 05c0 bb2d 75c0 3a36 46c0 0332 02c0
00000120: 13d1 88c0 ea46 34c0 8d5b 4ec0 2515 35c0
00000130: 4f7f 0bc0 680f a1bf 9f30 e8bf 3f67 15c0
00000140: 99da 05c0 bab1 36bf a719 6bc0 b0f3 9dbf
00000150: 4b99 11c0 2b58 d4bf e552 e3bf 9d91 11c0
00000160: b440 82c0 d88d e0bf f7fd 72bf b0d5 6dc0
00000170: 69c5 81c0 6923 61c0 d516 38c0 e844 9bbf
00000180: e32e 02c0 357c 20c0 c100 73c0 e0f5 69bf
00000190: a94f 3ac0 8893 16c0 c90a 85c0 a958 a4c0
000001a0: c59b 1cc0 1962 3cc0 46b4 4ac0 cc7e 93c0
000001b0: 39a6 49c0 68d1 68c0 7f7b 34c0 9345 04c0
000001c0: 8474 2cc0 db6e 0ec0 5206 92bf 1d23 45c0
000001d0: d791 37c0 3cef 3fc0 0db4 b5bf 8ef5 38c0
000001e0: b899 46c0 b94a 88c0 a813 3ec0 f614 35c0
000001f0: 420a 8dbe 99d1 2cbf d8f3 80bf c149 3dc0
-2.0735035 -3.480777 -1.9073086 -3.6150444 -3.5351832 -2.5829656 -1.1930333 -2.6456687
-2.6757123 -2.9401002 -1.6077044 -3.5751436 -2.5044813 -1.9104203 -3.104247 -4.157521
-1.4325045 -3.40145 -2.7808282 -2.0812778 -2.515324 -1.2420777 -2.9932559 -4.059812
-2.6650827 -3.1198432 -2.3567789 -2.0496469 -3.7484949 -3.4263756 -2.1492143 -5.0256896
-6.4660397 -2.8892326 -2.1605184 -1.4880785 -4.3094277 -2.0259547 -1.1377287 -1.1194048
-5.2101946 -2.688741 -3.3441765 -3.149913 -2.7444952 -3.0164456 -2.5955946 -4.0471845
-3.2593737 -2.898118 -2.9732556 -1.4220555 -2.383193 -3.5651135 -3.328823 -2.7708783
-2.541385 -3.6617835 -2.7229104 -2.8759117 -1.6365709 -2.0610816 -2.5216715 -2.8213413
-2.420752 -6.904602 -3.3023126 -2.2566907 -2.0852776 -3.8309162 -3.0970597 -2.0343025
-4.2755218 -2.8168283 -3.2243378 -2.8294156 -2.1796453 -1.2582827 -1.8139838 -2.3344266
-2.0914671 -0.7136494 -3.6734407 -1.2339993 -2.2749813 -1.6589407 -1.7759672 -2.2745125
-4.0703983 -1.7543287 -0.9491877 -3.7161674 -4.055348 -3.5177863 -2.8763936 -1.2130404
-2.0341117 -2.507581 -3.796921 -0.913908 -2.911112 -2.3527546 -4.1575665 -5.135823
-2.4470074 -2.9434874 -3.167253 -4.609228 -3.1507704 -3.6377811 -2.8200376 -2.0667465
-2.6946115 -2.225516 -1.1408179 -3.0802681 -2.8682764 -2.9989767 -1.4195572 -2.8899875
-3.1031322 -4.2591214 -2.9699497 -2.8294044 -0.2754689 -0.6750732 -1.0074415 -2.9576266

5.weight f4 [1, 128]
00000000: bb3b bfbf d830 e43b 1a4f eabe a908 3fbe
00000010: 8614 81be cdee 84bf ed3b e1bf 9774 30bf
00000020: a770 a53e 7ad8 86bd 5102 d4bf 11b8 11be
00000030: cd65 983f 2a30 6cbe b4bf d3bd 052b b2be
00000040: eb5f e2bf ac2a c03f df1a 44bf a122 0fbf
00000050: e576 99be 12a2 09c0 56e4 02bf 3190 eb3d
00000060: a60f 3dbe 11a5 fdbe 8632 55bf 4603 82bf
00000070: 5372 87bf c31a fbbe ba14 dcbf 41d5 c63c
00000080: f489 0d3e 8d3c d43c 8398 2ebf ffce f7bf
00000090: d08b 40be d12f c8be 1c05 c4bf 1de6 e8bf
000000a0: cc8a f83c eb96 00bf a9fa 46bf 43a3 0b3e
000000b0: 2172 35bf 0ce6 b73f b351 2dbe 87fe f23e
000000c0: 88d2 1cbf 4103 11bf af7e 01bf 6e5d 9cbf
000000d0: 1117 7c3e 89e8 24bf 83bd a2be 7be1 b2bd
000000e0: 1f18 afbe 9631 9d3e 4c17 9abe 0bb4 69bf
000000f0: 3c78 a1bf 3eba 1abe adc0 83be e109 b8be
00000100: 21b9 81be 8bd5 973c 4345 eabd 35cb 00bf
00000110: 8e6b 8abe 618a acbe 6e8a 51bd 4189 d3be
00000120: 1a2f 20bd 3bc1 9abe 263e 87bf 6344 06be
00000130: 90c5 11bf 53f0 97be b2b1 acbf bbe9 59bf
00000140: bc38 61bf 0abd 2f3f 91f2 cd3d c873 55bf
00000150: 7935 53bf 63df 343e a26e 1ebf 1855 cf3f
00000160: da96 babc 76b0 13bf e87c 21c0 9532 2bbd
00000170: e2ee 97be 4cb8 f4be ae64 d6be 2f7d 40bf
00000180: d8e2 6abf e6d1 0fbf 5665 87bd 21e0 1ebe
00000190: f16d f3be 7eb0 2bbf 695a 33bf adf5 0e3e
000001a0: 7cda 2cbf 42ac 803f d95c 6dbf 3f68 8a3e
000001b0: 0a6a 96be 1729 633f 3013 19be decb 9abe
000001c0: 6a45 d7be 7e2b 85bf 306d c5be aa06 dd3c
000001d0: 615b 25bf fc09 34bf 296f 8dbe 456f 8c3f
000001e0: 1d47 073e 284c 41bd 862a a1be 8ba5 97be
000001f0: db0a 13c0 9e03 e9bf 77bc 0fc0 5e7a c5bd
-1.4940103 0.0069638304 -0.45763475 -0.18655647 -0.2521097 -1.0385376 -1.7596413 -0.689279
0.3231251 -0.065842584 -1.6563207 -0.14230372 1.1906067 -0.23065248 -0.10339299 -0.34798446
-1.7685522 1.5013022 -0.766035 -0.55912215 -0.29973522 -2.150517 -0.51129663 0.11502112
-0.18463 -0.49539998 -0.8328022 -1.0157249 -1.0581764 -0.49043855 -1.7193825 0.02427161
0.13822156 0.02590778 -0.68201464 -1.9360045 -0.18803334 -0.3909898 -1.5314059 -1.8195225
0.030339621 -0.5023028 -0.7772623 0.13636498 -0.7087727 1.436708 -0.16925697 0.47459814
-0.61258745 -0.5664559 -0.5058393 -1.2216012 0.24618174 -0.6441732 -0.3178521 -0.08734413
-0.3419809 0.30701894 -0.300959 -0.9129035 -1.2614818 -0.15110108 -0.25732937 -0.35945037
-0.25336555 0.018534442 -0.11438992 -0.5031007 -0.27035183 -0.33699325 -0.051157407 -0.41315654
-0.03910742 -0.30225548 -1.0565841 -0.13112025 -0.5694208 -0.2967554 -1.3491728 -0.8512227
-0.87977195 0.68647826 0.100560315 -0.83379793 -0.8250347 0.1766334 -0.6188756 1.6197844
-0.02277701 -0.57691133 -2.5232487 -0.041796286 -0.2967444 -0.47796857 -0.41873688 -0.75191015
-0.91752386 -0.56179655 -0.06611125 -0.15515186 -0.47544816 -0.6706618 -0.7005983 0.13960905
-0.6752088 1.0052569 -0.927198 0.27032658 -0.29377776 0.88734573 -0.14948726 -0.30233663
-0.42045146 -1.0403898 -0.38559866 0.026980717 -0.6459256 -0.70327735 -0.2762387 1.0971457
0.13210721 -0.04719177 -0.31477755 -0.29618487 -2.2975376 -1.8204229 -2.245878 -0.0964248
