models/TracksterGraphNet.51e-CloseByPion200PU.r15.e5.f400.pt (torch, 204931 bytes, 60 tensors)

norm.weight f4 [39]
00000000: 0000 803f 0000 803f 0000 803f 0000 803f
00000010: 0000 803f 0000 803f 0000 803f 0000 803f
00000020: 0000 803f 0000 803f 0000 803f 0000 803f
00000030: 0000 803f 0000 803f 0000 803f 0000 803f
00000040: 0000 803f 0000 803f 0000 803f 0000 803f
00000050: 0000 803f 0000 803f 0000 803f 0000 803f
00000060: 0000 803f 0000 803f 0000 803f 0000 803f
00000070: 0000 803f 0000 803f 0000 803f 0000 803f
00000080: 0000 803f 0000 803f 0000 803f 0000 803f
00000090: 0000 803f 0000 803f 0000 803f
1.0 1.0 1.0 1.0 1.0 1.0 1.0 1.0
1.0 1.0 1.0 1.0 1.0 1.0 1.0 1.0
1.0 1.0 1.0 1.0 1.0 1.0 1.0 1.0
1.0 1.0 1.0 1.0 1.0 1.0 1.0 1.0
1.0 1.0 1.0 1.0 1.0 1.0 1.0

norm.bias f4 [39]
00000000: 0000 0000 0000 0000 0000 0000 0000 0000
00000010: 0000 0000 0000 0000 0000 0000 0000 0000
00000020: 0000 0000 0000 0000 0000 0000 0000 0000
00000030: 0000 0000 0000 0000 0000 0000 0000 0000
00000040: 0000 0000 0000 0000 0000 0000 0000 0000
00000050: 0000 0000 0000 0000 0000 0000 0000 0000
00000060: 0000 0000 0000 0000 0000 0000 0000 0000
00000070: 0000 0000 0000 0000 0000 0000 0000 0000
00000080: 0000 0000 0000 0000 0000 0000 0000 0000
00000090: 0000 0000 0000 0000 0000 0000
0.0 0.0 0.0 0.0 0.0 0.0 0.0 0.0
0.0 0.0 0.0 0.0 0.0 0.0 0.0 0.0
0.0 0.0 0.0 0.0 0.0 0.0 0.0 0.0
0.0 0.0 0.0 0.0 0.0 0.0 0.0 0.0
0.0 0.0 0.0 0.0 0.0 0.0 0.0

input_edgeconv.graphconv.nn.convnetwork.0.weight f4 [32, 78]
00000000: 566e 6440 fbf0 a5bf c32b 523d 5fe5 233e
00000010: 76d0 d1bd f760 ff3d 67b6 c4c0 775b 903e
00000020: d826 353d 279f 47bd 0b50 17bc 0237 8dbe
00000030: 5840 2dbf 7f49 a13e 4677 8fbf f8bc eebf
00000040: 5085 cdbe aa03 a83e 973f a93e 319e 013e
00000050: d34a 243e c142 233d cfa6 eb3d c299 3dbd
00000060: 474a 22be 8e96 663e df4e 47bf 3f69 e4bf
00000070: f144 d9bf fcb5 b93d 90da 3d3e 02aa ddbf
00000080: 101c d4bf 61df 943f c95f 72be 5095 11bd
00000090: 16bd a5bf a7fb 13bd 70f7 253e 6339 a2bf
000000a0: f4b3 0c3f 0d45 4cbe cfc8 a0be 695f 193f
000000b0: 3d34 37be 6e8d aa40 00ba 4c3f d545 d5be
000000c0: c346 98be 877c 9cbd 5a23 493e 141f 7d3e
000000d0: 9e3c 8bbf b3df e33f c538 be3f 69f2 8f3e
000000e0: c20c f03e 4d8a aa3e 5f32 90bd b743 503e
000000f0: 2a28 b83e 8af9 0fbf 5500 2e3e 9ce9 89be
00000100: 0635 37bf e9ef b13c 9a73 e03f 637b e83f
00000110: 58bc 003f ae26 e03e 2280 dc3f 2a5c d73f
00000120: ce37 cabf 05d9 453d b0a3 093e b967 bd3f
00000130: 5c8f 963c 47c1 46bf 3a5f 80c0 943a 90be
00000140: 99fb 6e3e 362a 3fbd 3eb4 eabb 2592 58be
00000150: 8134 443e eaf4 823e 953e cfbe f036 13bf
00000160: 5541 a6bc cd9c ccbf 5e5f 4cbf 9b37 85be
00000170: 48ee e03e e094 243f cfd7 2dbd a68c e4be
00000180: 3264 1fbf 9d63 3e3d 37d7 953d e67b 8ebe
00000190: 17c5 603c 4519 fbbc 2966 d1bd dd54 78bd
000001a0: ac4a 26bf d0d1 a53f e06f b53f 061f d33d
000001b0: 1f26 933e b165 a73f 07a8 ad3f 0456 02bf
000001c0: 698d c53d 501d 183f c835 a43e f82b 193d
000001d0: 1f66 62bc f222 0340 00e2 97bf 6038 03be
000001e0: 8e46 3c3e a3a3 333d 55c7 91bb 3522 51bf
000001f0: 5938 ec3e 6049 803f 5298 7c3e 46e0 313d
00000200: 134c 68bf e04d 42bf 00ee 863e fcdf 20bf
00000210: 7b03 953c 82d3 e43e af9b 31bf 5c20 fabe
00000220: 9c40 223e 21f7 a6bb a6af b0be fcd1 823d
00000230: 3aac 38be 40d6 553e 3390 3c3f cd22 5c3e
00000240: b312 02c0 1bba f8bf b441 e43d de7c b3be
00000250: 9f37 eebf 45c3 ffbf 3170 273f 8576 2f3e
00000260: 98ed 353d 7eb9 28bf e616 e73c 7e8d 0b3f
00000270: c23d 8240 7857 95bf 2b2c 14bf e833 6e3d
00000280: 6634 f0bd 1147 97bd 2ba1 f6c0 eaa2 5abe
00000290: ec92 82bd 2c54 433e d9cf a23d 01b5 073f
000002a0: cd84 c03e 37c8 42bf 682d f9be 9aec c1bf
000002b0: 57c6 483e 5c6e 69be 5927 493e fecd 94bd
000002c0: d837 613d c67b 48bd 8611 923d 993e 993d
000002d0: cc05 34be 5a7f eabf b877 49bf 1f85 cdbf
000002e0: d23f aebf 6d14 593f 0591 343f 41a1 b8bf
000002f0: dd15 b4bf 9c41 a73e 0431 51be 8f93 17bd
00000300: 72bd c5be 1c0c d8ba ce49 4ebf 6437 f3be
00000310: 63a0 90bf 2990 5e3e 5c7f 933e 04f5 883d
00000320: 6f83 43bf 8305 6940 8390 7bbf ee23 fe3d
00000330: cdfb cdbd 037d ce3d b6b5 18bf baed 8fbd
00000340: 934e b43f 7936 4e3f 84c2 a43e af63 033d
00000350: f71d 8dbe f442 853e d599 d13e dd70 c2bc
00000360: 0f8e 44be 9277 eb3d 0821 22be 4b8a 8dbe
00000370: 6e4c 353f 27ab 0840 fbbd 4f3e 6ab5 9b3e
00000380: 938e 6dbf b964 e0be 5856 ea3d 7468 b93e
00000390: f629 c3bd 6e92 d5bd c530 ccbc 9ea7 febb
000003a0: 962d 703c e643 b53e 81d1 5ac0 a30a 51be
000003b0: 0913 4b3e 29b0 fd3c b5b0 bf3d 3957 4cbe
000003c0: 0938 f040 a680 a53d 3d0e 573d c200 c63d
000003d0: 2490 2e39 bc0d 42bc b363 a4be 0302 5a3d
000003e0: b3ba 32be 72fb 353f 8cc3 533e e7e4 a9be
000003f0: 3401 723d ce9f 1ebd 4829 b3bd 8c36 93bb
3.5692344 -1.2964166 0.051311266 0.16005467 -0.10244839 0.124696665 -6.147266 0.28194782
0.044226497 -0.048735764 -0.009235392 -0.2758103 -0.67676306 0.31501386 -1.1208274 -1.8651419
-0.40140772 0.32815295 0.33056328 0.12658001 0.16044168 0.039858583 0.115064256 -0.046289213
-0.15848647 0.2251837 -0.7785472 -1.7844619 -1.6974164 0.09067914 0.18540406 -1.7317507
-1.6571064 1.163067 -0.23669352 -0.035542786 -1.294833 -0.036128666 0.16207671 -1.2673763
0.54962087 -0.19948216 -0.31403205 0.5991121 -0.17891021 5.3297644 0.79971313 -0.4165484
-0.29741487 -0.07640939 0.19642392 0.24718887 -1.0877874 1.7802643 1.4861075 0.28114632
0.46884733 0.3330864 -0.070408575 0.20338331 0.35968143 -0.5624014 0.16992314 -0.26936042
-0.7156528 0.021720843 1.7535279 1.8162655 0.5028739 0.4377951 1.7226603 1.6825001
-1.579828 0.04830267 0.13441348 1.4797279 0.018378906 -0.7763867 -4.0116243 -0.28169692
0.23338164 -0.046671115 -0.0071626 -0.211495 0.19160654 0.2557748 -0.40477434 -0.575057
-0.020294825 -1.5985352 -0.7983302 -0.26018986 0.43931794 0.64289665 -0.04244214 -0.44638556
-0.6226226 0.046481717 0.073164396 -0.27828902 0.013718865 -0.030651698 -0.10224564 -0.060627807
-0.6495769 1.2954655 1.4174767 0.103086516 0.28740022 1.3077909 1.3566903 -0.509125
0.096461125 0.5941973 0.32072282 0.037395447 -0.013818293 2.049008 -1.1865845 -0.12814474
0.1838629 0.043857228 -0.004448811 -0.8169282 0.4613674 1.0022392 0.2466748 0.043426774
-0.9074108 -0.7590008 0.26353455 -0.62841773 0.018190136 0.44692618 -0.6937818 -0.48852813
0.15844959 -0.005095378 -0.3450901 0.063877076 -0.18034449 0.20882511 0.7365753 0.2149765
-2.0323913 -1.9431795 0.111453444 -0.35056204 -1.8610724 -1.9981467 0.65405566 0.17135055
0.04441604 -0.6590804 0.028209161 0.54512775 4.070039 -1.1667318 -0.57879895 0.05815497
-0.11728744 -0.07386602 -7.707174 -0.2135121 -0.063756794 0.19075078 0.079498 0.53010565
0.3760132 -0.76086754 -0.48667455 -1.515033 0.1960691 -0.22796005 0.19643916 -0.072658524
0.054984897 -0.048946165 0.071322486 0.07482643 -0.17580336 -1.8320115 -0.786983 -1.605625
-1.3613226 0.8479679 0.7053378 -1.4424211 -1.4069172 0.32667243 -0.20428854 -0.037005957
-0.38621098 -0.0016483101 -0.80581367 -0.47503197 -1.1298946 0.2173468 0.28808105 0.06687358
-0.76372427 3.6409614 -0.9826738 0.12409197 -0.10057793 0.10082438 -0.5965227 -0.070277646
1.4086479 0.8055187 0.32179654 0.032077488 -0.27561924 0.26027644 0.40937677 -0.023735458
-0.19194816 0.114974156 -0.15832913 -0.27644572 0.7081975 2.1354463 0.20287316 0.30411845
-0.92795676 -0.43826845 0.1144225 0.36212504 -0.09529488 -0.1042832 -0.024925599 -0.0077714464
0.014659306 0.35403365 -3.419037 -0.20414214 0.1983148 0.030967789 0.09359876 -0.19955148
7.50684 0.08081178 0.052503813 0.09668113 0.0001664763 -0.011844095 -0.32107314 0.053224575
-0.17454033 0.710868 0.20680064 -0.3318245 0.05908318 -0.03872662 -0.08748108 -0.0044925865

input_edgeconv.graphconv.nn.convnetwork.0.bias f4 [32]
00000000: 3de2 f9bd 46ab 59bc b6e0 47bd 794a d03d
00000010: 9950 a73d 12a4 f8bd ab71 853d 866a 4cbc
00000020: afc9 973d 072b a33c 17bb 7dbc 4ea9 f9bc
00000030: 888c 3cbd 3a55 933d 5e85 cbbd 0eec b93c
00000040: 8879 423d 63ed a8bd 77e2 5e3d a76a e53c
00000050: 72da 33bc 0639 c7bd cb02 f23d 7b04 9fbd
00000060: 0548 72bd 1dad 9ebd 739b c2bd ec82 babd
00000070: 5616 9fbd afad 813d 1240 aa3d 926c 03bd
-0.12201355 -0.013285464 -0.048798285 0.101704545 0.0816967 -0.12140669 0.06515821 -0.012476569
0.07411515 0.019917978 -0.0154865 -0.030476239 -0.04603246 0.0719399 -0.09937547 0.022695567
0.047479182 -0.08248403 0.054415192 0.028004957 -0.010977374 -0.09727673 0.11816939 -0.077645265
-0.059150714 -0.077478625 -0.09502306 -0.091070026 -0.07767932 0.06331956 0.08313002 -0.032085963

input_edgeconv.graphconv.nn.convnetwork.1.weight f4 [32]
00000000: d5dd 503f 1d2e 993f 03b0 753f b160 ac3f
00000010: d7dd 2d3f c132 9e3f 9503 2a3f 50d5 7e3f
00000020: 6ad6 863f 0cf5 623f 7bf3 723f 7a50 933f
00000030: 6090 823f bbbd 2a3f 1e7d 5c3f b149 7f3f
00000040: ea13 a63f 52e4 483f ed8c 3d3f 7a91 d13f
00000050: 5c8c 9e3f 7b5b 533f 4ced 303f bdea 853f
00000060: 3762 9e3f 8511 603f 7335 363f cb9e 853f
00000070: e144 653f 7f2f 9d3f 3168 603f 804c 8a3f
0.8158849 1.1967198 0.959717 1.3467008 0.67916626 1.2359239 0.66411716 0.9954424
1.0534184 0.8865516 0.9490277 1.1508934 1.020031 0.66695756 0.86128414 0.9972182
1.2974827 0.7847339 0.7404316 1.6372521 1.2386584 0.82561463 0.69112086 1.0462261
1.2373723 0.8752673 0.7117531 1.0439085 0.89558226 1.228012 0.87658983 1.0804596

input_edgeconv.graphconv.nn.convnetwork.1.bias f4 [32]
00000000: 2e17 53bd 0ca6 f43e 87c3 e7bc e251 a4bd
00000010: 10c1 203f 4896 a2bc ac9b 733e e4ab ab3e
00000020: 6897 b4be 3fd4 1a3e b84a a4be 9426 ebbe
00000030: 03aa fabc a1fa 09bf 1e40 a63d 0954 babe
00000040: 4312 03be 7f18 7fbd 9712 b33e a3c3 22be
00000050: 0511 973e 633f 83bd b35b 91be f3d6 353e
00000060: 9373 023e 4faf 6c3b 7a03 dd3c 24c1 88bd
00000070: 912f cabe 37ca e73e dbbd 32be f550 96be
-0.051535778 0.47782934 -0.028291477 -0.080234304 0.6279459 -0.01984705 0.23789853 0.3352958
-0.35271764 0.15120028 -0.32088256 -0.4592787 -0.030598646 -0.53898054 0.08117698 -0.3639224
-0.12799935 -0.06227922 0.3497512 -0.15894942 0.29505172 -0.064085744 -0.28390273 0.17757778
0.127394 0.0036115234 0.026979197 -0.06677464 -0.39489415 0.45271465 -0.17455237 -0.2935864

input_edgeconv.graphconv.nn.convnetwork.1.running_mean f4 [32]
00000000: ed7e 2cc2 318c 58c3 55dd 14c3 3c56 753e
00000010: 9992 a542 45b6 84c2 16d9 7a42 755f 8341
00000020: 5e8b 8fc1 c20f d542 2075 1c43 4cde dfc2
00000030: f96c fc41 ef7f 2c43 a707 1e42 3694 69c0
00000040: 5662 e8c1 7813 aec2 124a 90c2 21db d6c1
00000050: b720 a240 13ba 8042 c94d ccc1 c1f6 4e41
00000060: 1c13 7ec2 5243 e842 7852 0843 800f 73c3
00000070: e559 e2c3 6885 9041 26e0 1c42 65f6 6ac3
-43.12395 -216.54762 -148.86458 0.23958677 82.78632 -66.355995 62.711998 16.42161
-17.94305 106.53078 156.45752 -111.93417 31.55321 172.49974 39.507473 -3.649671
-29.048016 -87.038025 -72.14467 -26.856997 5.0664935 64.36343 -25.537981 12.935243
-63.51866 116.131485 136.32214 -243.06055 -452.7023 18.06514 39.218895 -234.96248

input_edgeconv.graphconv.nn.convnetwork.1.running_var f4 [32]
00000000: 89dc cd44 90f3 cb45 8378 e543 4fec e043
00000010: d088 3144 2628 e743 ba00 8d44 a74f 9a44
00000020: 477f 5444 a61f 1544 d4dd dd44 9e07 5544
00000030: 50f7 2e44 f5e7 ee44 6fcb e044 397a f744
00000040: 4773 0544 46cb 6644 e1d4 5245 4b84 5146
00000050: c238 3244 0f3e 8644 89c4 7d44 076d bd43
00000060: 10cb 4944 941d 6944 dff6 0f45 a075 9c45
00000070: 0b6e 6245 a224 5344 b922 2c45 47de 4645
1646.8917 6526.4453 458.9415 449.84616 710.1377 462.31366 1128.0227 1234.4891
849.9887 596.4945 1774.9321 852.119 699.86426 1911.2487 1798.3573 1979.8195
533.8012 923.17615 3373.305 13409.073 712.88684 1073.9393 1015.07086 378.85178
807.17285 932.46216 2303.4294 5006.703 3622.8777 844.5724 2754.1702 3181.8923

input_edgeconv.graphconv.nn.convnetwork.3.weight f4 [32, 32]
00000000: f607 cebd da7c ed3e 26c5 2dbe 2821 1ebf
00000010: 0381 81be 5592 64bd 429b d0be 9de5 22bc
00000020: 0564 bebc 6d68 363e 7246 4ebe 3989 dc3c
00000030: d4a8 003d 9c42 ba3d ad6d da3d f5c1 3fbe
00000040: 4232 f0be 5f88 a23d d1a8 a13d b1bf 80be
00000050: bd8f a03e bf88 2e3e 48f4 5d3e 9eb5 42bf
00000060: 1768 6abe 6920 b2be d50c 72be f1e2 99bd
00000070: 3665 07be 1598 24be 05ca cdbe 062c 183d
00000080: 0e9e 57bc be46 dbbc 7a9a 52be f850 97be
00000090: 00e9 84bd dde7 7dbc d12b 58be 989b 7fbd
000000a0: 5872 50be 77f2 883e 8016 a8bb 7137 e33e
000000b0: 483b 6d3e 781d dcbd f6e3 2ebf ccd9 96be
000000c0: 0a5b a7bd f8bc 6c3e 9981 89be 6f57 183f
000000d0: 93c5 da3e 0943 da3d e3cb edbc 1d92 553d
000000e0: 791f e5be ee58 673e 0570 fe3e 876b 01bf
000000f0: dabb 843c d70f 20be 0f7a 3c3e eb30 cdbe
00000100: 293d 9ebe 6fa9 dbbd 42cf 91bd 1eed 0d3e
00000110: f35c 33bd 3e47 443e 8dbd f3be 5a81 8fbe
00000120: 24f2 ce3d be54 223e 55eb f53e 8aef d93d
00000130: c6f2 e5bd f18a ed3d 7e7f 65bd c603 f8bd
00000140: 2a8a e73d adef e1be 4843 ecbd 3f82 84be
00000150: 3519 39bf 4699 77be 43df 55bd bdee 9b3e
00000160: 874d 2c3e 52c8 2b3d a409 ca3c 7851 af3d
00000170: 91b7 933d bf47 e03e 0c20 28bd 3580 2c3f
00000180: e4b1 d93d f7c4 ce3d 7ad7 e4be ebb7 093d
00000190: fa54 803b d33c e73e e1e7 133e 0719 f8be
000001a0: 1728 febe 2c77 78be 4c36 6a3d ef3c 3dba
000001b0: 3cdd 24be 479f 803e 5956 30bd 003d adbe
000001c0: a6a4 c93d 1248 e9bd add2 cebd c821 073e
000001d0: 67cd 3d3e 39e1 bfbd af87 8e3e f573 50be
000001e0: e9cd 433f 27ed edbc 5446 58bd 8f1b 983d
000001f0: 77fc b3bd fbaf 833e bc10 c33e 65fb bd3d
00000200: 51f0 1abe f0c0 f9bd 9d88 aebd a867 e9be
00000210: 47a6 bcbe 5769 38be 0176 60be b4df 2ebd
00000220: 06ca 69be a501 a0ba 44fd c7bc 18af e73c
00000230: 0f29 febd 40d2 133e 5d4e 5ebe 47f8 88be
00000240: b96e 82be 6a49 843c 0894 22bf 177f 803f
00000250: f929 763e 8ec3 01be 842a 9ebe 7dd9 13be
00000260: c635 1cbb 8985 2cbd 065f 9fbd 0b19 03be
00000270: 5cf1 c33e db27 d13e 17f1 0cbe bc53 86bd
00000280: b4b6 9ebd 4625 94be 9382 7b3e f8e8 bfbc
00000290: b5bd 013e fdf9 763d 85c5 f8ba bae8 6cbe
000002a0: e5fa 8ebe 4f8c 7bbe 721f 4dbe f8c6 f53d
000002b0: 9bdf 74bd e6d0 033e 41c6 f7bd 3ca8 32be
000002c0: d4a9 0abe 75e7 70be be0a a6bd 64ea 993e
000002d0: 9b22 4f3f a552 293e e7ac 553d 9cd3 b9be
000002e0: 4670 14bf 6b08 933e 435c 713e d916 633e
000002f0: 95a9 07bf 74e9 dbbe b549 9a3e 14a0 1a3d
00000300: 2e9f 393e 1b44 bcbe 78df 16be 217b 6fbe
00000310: e232 66be a860 10bf b388 143e c0be b8be
00000320: 2088 94be a927 f4bc a973 113e ab6a dabd
00000330: 1c70 94be 65cc 103e e5f8 01bf 8b6f 153e
00000340: 6887 21bf 120f ee3d 9d9e 35bc 1129 7fbe
00000350: ed16 53bd 7489 3bbe b48a 28be d99e 4bbe
00000360: 4c81 b5be 159b dbbd a602 5b3e 7afc f7bd
00000370: e24f 1d3e 5796 acbe 1966 26be 25bf b33c
00000380: 036f 7ebd 935c 8f3e 48af c6be 2a78 8b3e
00000390: d05f 853e d08e b13e b2d4 de3e 62e2 3a3e
000003a0: 0020 aa3c f41a 09bf bc12 d3be 0c88 07bf
000003b0: 04b2 073d 41a7 a2bd e256 89bd 2e0f b43e
000003c0: a9d8 883e 4389 d03e c847 dfbd d2e5 023e
000003d0: 9186 393d d55e cebc 23d2 acbe e2e2 4b3c
000003e0: 0bd9 ab3d 1846 743d 6615 903d a057 d03e
000003f0: 4653 8b3e 9333 0e3e 2279 09be 93cb b6be
-0.10060112 0.46384317 -0.16969737 -0.6176934 -0.2529374 -0.055803616 -0.40743452 -0.009942439
-0.023241052 0.17813273 -0.2014406 0.026920902 0.031411007 0.09094736 0.1066545 -0.18726332
-0.46913344 0.07936167 0.07893527 -0.2514625 0.31359664 0.17044352 0.21675217 -0.76058376
-0.2289127 -0.34790352 -0.23637708 -0.07513989 -0.13222203 -0.1607364 -0.4019319 0.03715136
-0.013160242 -0.026767131 -0.2056674 -0.29553962 -0.06489754 -0.015497175 -0.21110465 -0.062404245
-0.20356119 0.26747486 -0.0051296353 0.44378236 0.23167145 -0.10747808 -0.6831659 -0.2946304
-0.08171661 0.23118961 -0.26856688 0.59508413 0.42728862 0.10657317 -0.029027885 0.052141298
-0.44750574 0.22592518 0.4969484 -0.505547 0.016202856 -0.15631042 0.18405937 -0.40076384
-0.30906036 -0.10725676 -0.071196094 0.13859984 -0.043789815 0.19167802 -0.47605553 -0.28028375
0.101047784 0.15852639 0.48031107 0.106413916 -0.11227946 0.115987666 -0.05602979 -0.12110095
0.113056496 -0.4412817 -0.115362704 -0.2588062 -0.7230409 -0.24179563 -0.052214872 0.3045558
0.1682645 0.041939087 0.0246628 0.08560461 0.07212747 0.43804738 -0.041046187 0.6738313
0.10629633 0.10096162 -0.44695646 0.033622663 0.00391638 0.45163593 0.14443924 -0.48456594
-0.4963996 -0.2426421 0.057180688 -0.00072188576 -0.16100019 0.2512152 -0.043051098 -0.33835602
0.09845857 -0.113906994 -0.10098777 0.1319648 0.18535386 -0.0936913 0.27837893 -0.20356734
0.7648607 -0.029043747 -0.052801445 0.074271314 -0.08788388 0.257202 0.38098705 0.09276465
-0.15130736 -0.12195003 -0.08522151 -0.45586896 -0.3684561 -0.18008934 -0.21920015 -0.04269381
-0.22830972 -0.0012207521 -0.024412759 0.028281733 -0.12410175 0.14435673 -0.2170958 -0.2675192
-0.254751 0.016148288 -0.6350713 1.0038785 0.24039449 -0.12672254 -0.30891812 -0.14438434
-0.0023835762 -0.042119537 -0.07781796 -0.12802522 0.3827008 0.4085072 -0.13763843 -0.0655894
-0.077496916 -0.28934687 0.24561529 -0.023426518 0.12670024 0.060297 -0.0018979764 -0.23135653
-0.27925792 -0.24565242 -0.20031527 0.12000841 -0.05978356 0.12872657 -0.12098361 -0.17446989
-0.13541347 -0.23525794 -0.08107518 0.30061638 0.8091218 0.16535433 0.052166846 -0.36294258
-0.57983816 0.2871736 0.23570351 0.22176684 -0.52993137 -0.42951548 0.3013436 0.03775032
0.18127128 -0.3677071 -0.14733684 -0.23386814 -0.22480348 -0.56397486 0.14505272 -0.3608303
-0.29010105 -0.029804068 0.14204277 -0.106648766 -0.28991783 0.1414047 -0.5077041 0.14593332
-0.6309724 0.11623968 -0.01108518 -0.2491801 -0.051535536 -0.18314153 -0.16459161 -0.19884814
-0.35450208 -0.10722939 0.21387729 -0.12108703 0.15362504 -0.3370845 -0.16249885 0.02194173
-0.062117588 0.28000316 -0.38805604 0.27240115 0.26049662 0.3467927 0.4352165 0.1825042
0.020767212 -0.5355675 -0.4122523 -0.52941966 0.033128753 -0.079420574 -0.06706025 0.3516783
0.267278 0.40729722 -0.10902363 0.12782982 0.04529435 -0.025191704 -0.33754072 0.01244423
0.08391007 0.05963716 0.070353314 0.40691853 0.2721197 0.13886862 -0.13425115 -0.3570219

input_edgeconv.graphconv.nn.convnetwork.3.bias f4 [32]
00000000: 1f20 2abd 4afb 02be 2800 9a3d 7a79 48bd
00000010: c1fd 83bd 9616 3cbe 72a9 233e dd33 f7bc
00000020: 439e 603c 6c44 993d 4a93 9dbe 341e c9bc
00000030: edc9 b83d 8741 6d3d 14da 0c3d 618e 49be
00000040: ca09 d43d 1c75 163d a35e 27be 5579 a53d
00000050: fa82 8dbd 0dba d3bd bd48 6e3e bca8 453d
00000060: d69e 83be 0c7f 40be bf21 533e d819 9d3d
00000070: 8bdb 503e 3a4b 27be fa94 21be c4bb a33d
-0.04153454 -0.12791172 0.07519561 -0.048943974 -0.06444884 -0.18367991 0.15982607 -0.030176098
0.0137096075 0.074837536 -0.30776435 -0.024550535 0.09022889 0.05792382 0.034387663 -0.1968322
0.103534296 0.036732778 -0.16344695 0.08079783 -0.069097474 -0.10338221 0.23269935 0.04825662
-0.2570712 -0.18798465 0.20618342 0.07670945 0.20396249 -0.1633729 -0.15779486 0.07994798

input_edgeconv.graphconv.nn.convnetwork.4.weight f4 [32]
00000000: eec6 913f 3e63 203f 80fb 8c3f eb52 853f
00000010: e6b4 683f 2479 603f 1cc5 8b3f db8c 843f
00000020: adc6 983f ffa8 933f f666 893f 5f63 983f
00000030: 60d0 413f 1d57 883f db15 803f 3428 b73f
00000040: 4009 7f3f ce71 6a3f be67 863f df3c 803f
00000050: 902b 523f 4696 663f 1bbd 5c3f 9780 7a3f
00000060: 5b1e 733f c22e 813f b6d5 4e3f a792 583f
00000070: 53d4 ba3f 88e9 473f 6e4d 763f 2dc9 843f
1.1388834 0.6265143 1.1014252 1.041593 0.9090103 0.87684846 1.0919528 1.0355486
1.1935631 1.1535949 1.0734546 1.1905326 0.7570858 1.0651585 1.000667 1.4309144
0.9962349 0.915799 1.050041 1.0018576 0.8209772 0.9007305 0.8622605 0.9785246
0.94968194 1.0092394 0.80794847 0.84598774 1.4596046 0.78090715 0.962119 1.0373894

input_edgeconv.graphconv.nn.convnetwork.4.bias f4 [32]
00000000: c5c0 02bf f7b9 c5be 50df 3e3e 4ae1 63be
00000010: c783 933e d6a8 eb3b 3992 ba3e a300 89be
00000020: 041d 55be 0d63 87be 2908 acbe 74c5 babe
00000030: 15ec 34be d043 5a3e e874 a0bd 0ec8 86bd
00000040: 5cf2 a9be 1de0 0cbe bfc2 383e 9e85 673e
00000050: d28f fcbe c59b a2be 7cc7 873e cc1f 88be
00000060: dcb2 053e c511 57be c7ed febc 2596 8ebe
00000070: 6d22 a53d e4ce 07bf 0302 83bd 13c8 dc3c
-0.5107539 -0.38618442 0.18639874 -0.2225391 0.28811476 0.0071917577 0.36439684 -0.26758298
-0.2081185 -0.26442757 -0.33599976 -0.3647877 -0.17668183 0.21314931 -0.07834798 -0.06581126
-0.33192718 -0.13757367 0.1804304 0.22609565 -0.49328476 -0.31759468 0.26519382 -0.2658676
0.1305651 -0.21002872 -0.03111924 -0.27848926 0.08063207 -0.53050065 -0.06396868 0.026950872

input_edgeconv.graphconv.nn.convnetwork.4.running_mean f4 [32]
00000000: aff2 a3bf 1719 1bbf 2b82 9cbd b8bc 5f3e
00000010: 60f7 8bbf 7cd1 2bbf b4ed f2bf 96bd 503f
00000020: b699 b4bf 03d4 8cbf 991d d9bf 1bb0 203f
00000030: 7f14 3a3f 9b73 18bf 5e26 8a3f 67d8 6ebf
00000040: acc2 73bf 8d30 c8be 246a 1fbf 6ed8 b5be
00000050: 78e3 ce3f 4ea1 4b3e 7373 dabe 9c60 07bd
00000060: 4d74 263e 4db7 03be 1167 2bbf 1bb5 543f
00000070: 462c f83e 4b4d d43e c729 b8bf f6d5 28bf
-1.2808436 -0.6058516 -0.07642015 0.21849334 -1.0934868 -0.6711652 -1.8978791 0.81539285
-1.4109409 -1.1002201 -1.6962157 0.62768716 0.72687525 -0.595514 1.0792959 -0.93298954
-0.9521892 -0.3909954 -0.6227133 -0.35516685 1.6163168 0.19885752 -0.42666206 -0.03305112
0.16255303 -0.12862892 -0.6695414 0.83088845 0.48471278 0.4146522 -1.438775 -0.6595148

input_edgeconv.graphconv.nn.convnetwork.4.running_var f4 [32]
00000000: 3770 3c3f dc29 5a3f 287e 8d3f 992b ca3e
00000010: f906 873f 8ffe 453f cdbf 893f 8bd5 443f
00000020: b18b c23e e13b f53e 4039 2b3f 4345 9c3f
00000030: 31cc c43e 2aaa ba3f 49b6 1540 ae8b 0d3f
00000040: 8335 193f 0aef af3f adee ec3f 2476 873f
00000050: 0d8d 793f f4d8 f83e 16da 7c3f 6986 b83e
00000060: 24c6 4f3f bedb ca3e 92bc a83f bd81 5d3f
00000070: 60a5 ed3f 2679 3c3f a2e2 233f 6657 1440
0.73608726 0.8522012 1.1054125 0.39486387 1.0549003 0.7734155 1.0761658 0.7688834
0.379972 0.47897246 0.6688423 1.2208637 0.38437036 1.458318 2.3392508 0.5529126
0.5984728 1.3744824 1.8510338 1.0582929 0.9748085 0.48603022 0.9877027 0.36040047
0.81161714 0.39620775 1.3182547 0.8652609 1.8566093 0.7362236 0.6401769 2.3178344

input_edgeconv.graphconv.nn.convnetwork.6.weight f4 [32, 32]
00000000: 6fa4 d33e 7051 823e ae98 abbd f801 18be
00000010: 9291 a9bc 8543 b13e b41b d4be 5e16 4bbe
00000020: 7a6a f83e 0a2d 32be a25a 6a3e 2034 d3be
00000030: a617 a1be 501c 0b3e 1893 3b3e 94b1 203e
00000040: 5bac 71be 59dd 753e 9e77 9f3d 890a a2be
00000050: c208 80bc b65a c2be b79d c8be e919 04bf
00000060: 6888 593d bbf4 9f3d 06a4 f9bd 4f1d 06be
00000070: 4682 c73e 3bbe c4bd f030 a7be d0c0 ab3b
00000080: 72cb 22bf 6ee6 6abd 65c0 0a3e 5a33 a0bc
00000090: a091 0fbf 5c89 903e 3a8e 31be d04c c1be
000000a0: 8b06 283e ed06 e9be 258b 773e dda9 913e
000000b0: bd99 da3e 4156 b0be 0653 cc3e 9ce7 b2bd
000000c0: 8281 a53d f4cd 293d 8022 c73d a7fe 813e
000000d0: b9c1 cf3d 3759 3dbd 29b6 303c a2a5 f63d
000000e0: 7605 543e 7ca6 d73d 72a5 54be ac12 d63d
000000f0: 0ede 91be b6e5 2d3e 15e4 623d 3cfb 3abe
00000100: b4fd eb3e 7805 76be c389 a5be 064a 14be
00000110: 10d9 84bd 10ae 20bd dae1 14be 654b 023e
00000120: 8bda c53d 342c 8b3e 3aee b5bd 0195 94be
00000130: 79d6 c8bd 3758 3abe 5243 243e 5f29 a23e
00000140: 9a0a a4be 94b9 57be 1a1f 7dbe 215c e93d
00000150: e07e cebe e714 e73d 9982 0ebf 28c1 923e
00000160: 9e72 893e 5e07 57be 4b80 28be 2b86 bfbd
00000170: 9bbc 54bd 1c11 36bf 749b 27bf 3068 e0be
00000180: ad01 58be 0568 fdbd 06da 403c f63a 043f
00000190: dd5a 5dbb 9a1e dfbd 5436 f2be 2679 3fbd
000001a0: 70cf 603e a5f2 00bf 9e27 36be 950b a23e
000001b0: f383 06bf 730e 7d3e b97a 3dbe 9da7 d23e
000001c0: 03f9 64be ee74 bbbd 8a67 d03d 55af 95bd
000001d0: 29f3 ecbd 0dcd 683e ae84 f8bd 130d 973e
000001e0: aa7f 48be 1052 19bd a1bd 54be fd7a 15bf
000001f0: 5370 d03e 1d9c 51bd 185b a9be 1384 81be
00000200: 403d 29bf 82ad ddbd 2c95 713c 0481 943d
00000210: 6c78 5dbe 234c 2bbb 5eb4 e5ba fcfd b03e
00000220: 074f b6bc 1ab9 21bf dfb7 e3bd 7fb2 c0bd
00000230: 0bc5 afbd ab0b 05bd a532 45be be81 a0be
00000240: 08ad 59be 4059 d8bd d9ca 7cbd 8a5e 19bd
00000250: 0693 33be da38 cf3d 0824 423e fbaf 083c
00000260: 4119 e8bd 3297 59bf 7bac 13be 1061 f9be
00000270: 416d d6be 3fdc 8a3d 8a95 ac3d d02a 873e
00000280: 03fd 973e d7ca 5a3e d25e 0ebf 9ca2 2e3f
00000290: 1739 103d 95f8 9d3e a355 2abe 94c6 88be
000002a0: c662 0f3e afa1 b63e e638 5cbc 36ae e6bd
000002b0: 4bd7 57be e15d 3fbe f8f7 06be 934f 04be
000002c0: d99d fd3c a4ef 98be 7a96 053f 1f3a 4bbe
000002d0: 7f9c 63be 2200 453e 6983 d8bd 0ba3 243e
000002e0: 84f0 18bc d53f 4bbe 9f7a 77be 9680 263d
000002f0: 36b0 9fbe a0ee cbbe 5acd 2dbd fbfe 68be
00000300: e152 86bd 5e50 83be ec63 edbd 0c5f 30bf
00000310: 91b6 eb3d 1aa7 babe de65 34be c723 1bbf
00000320: 1100 4b3e a83d c6bc 78c7 403e de95 a33e
00000330: 92c6 0b3e ce79 e13c 0a1f 23bd 3ba6 86bd
00000340: 5674 4a3e 90da 983d 52f7 a83c 65d8 afbe
00000350: 2da3 30be f271 10be 3ef9 923e 5b78 be3d
00000360: 158b 0f3e b0f1 dc3e 8d1f 4b3e d4c2 12be
00000370: b2e5 04be ebae 9d3d 6bb7 d73e c47c e23e
00000380: f102 21be 54fb 883c e0f6 323e 86b2 d7be
00000390: a597 123c 0acf c2be e2fd 6a3e 3c72 8dbe
000003a0: 4789 89be aa55 b03d 3c09 06bf 479d 5c3e
000003b0: cc85 fe3d 3cb2 7dbd 55aa e3bd af49 58be
000003c0: 8863 ee3c 1b13 073f 62c0 d1be 5e78 493e
000003d0: 392e 81b9 8ba8 c33e b0d2 a9be 40a9 d9bd
000003e0: a5fe d83e cb56 95be c2ea b53e 1115 b8bd
000003f0: 360d 353e 7091 b6be 60af 533e ac43 04be
0.4133639 0.25452757 -0.08378731 -0.14844501 -0.020699296 0.34621826 -0.41427386 -0.19832751
0.48518735 -0.17399994 0.22886136 -0.41250706 -0.31463355 0.13585019 0.1831783 0.1569274
-0.23600905 0.24010219 0.07786487 -0.31648663 -0.015629176 -0.37959832 -0.39182827 -0.51602036
0.053108603 0.078103505 -0.12189488 -0.13097118 0.38966578 -0.09606596 -0.32654524 0.005241491
-0.6359168 -0.05734866 0.13549955 -0.019555736 -0.5608158 0.28229797 -0.17339411 -0.37753916
0.16408746 -0.45513096 0.24174173 0.28449908 0.42695418 -0.34440807 0.39907092 -0.08735582
0.08081342 0.041456178 0.09723377 0.25389597 0.101443715 -0.04622766 0.010785618 0.12043311
0.20705208 0.10529801 -0.20766237 0.1045278 -0.28489727 0.16982159 0.055393297 -0.18259901
0.46091998 -0.24025524 -0.32331666 -0.14481363 -0.06486714 -0.0392285 -0.1453928 0.12724073
0.096608244 0.27182162 -0.08883329 -0.2901993 -0.098065324 -0.18197714 0.16041306 0.3167219
-0.32039338 -0.21066886 -0.24718896 0.11394525 -0.40331173 0.11283284 -0.55668026 0.28662992
0.26845258 -0.20998904 -0.1645519 -0.093517624 -0.05193768 -0.71119857 -0.6547158 -0.4382949
-0.2109439 -0.12373356 0.011770731 0.5165247 -0.0033776083 -0.10894509 -0.47307074 -0.046746396
0.21954131 -0.50370246 -0.1778855 0.3164946 -0.5254509 0.24712543 -0.18503846 0.41143504
-0.22360615 -0.09153162 0.101759985 -0.073088326 -0.115698166 0.2273447 -0.12134682 0.29502162
-0.1957995 -0.037431777 -0.20775463 -0.5839079 0.40710697 -0.05117427 -0.33077312 -0.25296077
-0.66109085 -0.108241096 0.014745038 0.0725117 -0.21627969 -0.002613791 -0.0017525067 0.34568775
-0.02225448 -0.6317307 -0.11119055 -0.094090454 -0.08582505 -0.03248183 -0.192576 -0.31348985
-0.21257412 -0.10563898 -0.061716888 -0.037443675 -0.17536554 0.101182655 0.18959057 0.008342738
-0.11332942 -0.8499633 -0.14421265 -0.48706865 -0.4188023 0.0678029 0.0842696 0.2639985
0.2968522 0.2136644 -0.55613434 0.6821687 0.035210695 0.30853716 -0.1663423 -0.26714003
0.14002523 0.3567023 -0.0134413 -0.11263697 -0.21078221 -0.18688156 -0.1318053 -0.1292098
0.030959057 -0.2987033 0.52182734 -0.1984639 -0.22227667 0.19238332 -0.105719395 0.16077821
-0.009334687 -0.19848569 -0.2416787 0.040649973 -0.31189126 -0.39830494 -0.042432167 -0.22753517
-0.06558777 -0.25647253 -0.11591324 -0.6889503 0.11509431 -0.36455613 -0.17616984 -0.60601467
0.19824244 -0.024199322 0.18826091 0.31950277 0.13649967 0.027523901 -0.039824523 -0.06574675
0.19770941 0.074635625 0.020625744 -0.34344783 -0.17249747 -0.14105967 0.28705782 0.093003
0.140179 0.43153143 0.19836254 -0.14332134 -0.12978247 0.076993786 0.42132124 0.44235814
-0.15723778 0.016721405 0.17476988 -0.4212839 0.008947288 -0.38048583 0.22948411 -0.27626216
-0.26862547 0.08610089 -0.5235784 0.21544372 0.124278635 -0.061937556 -0.11116473 -0.21121858
0.029100195 0.5276353 -0.4096709 0.19674823 -0.00024639236 0.38214526 -0.33168554 -0.10627985
0.42381778 -0.2916778 0.35530668 -0.08988393 0.17680821 -0.35657835 0.20672369 -0.1291644

input_edgeconv.graphconv.nn.convnetwork.6.bias f4 [32]
00000000: 5994 f3bd 8d1c f7bd ce2a dfbd 39bb 4c3d
00000010: 4907 43be c57a 20be dfd4 d6ba 31d7 963e
00000020: 60a2 113e b3c9 2a3d 1e37 853e 5e18 753d
00000030: d7a8 0fbe 1e62 093e 0506 8c3d 39bf a43d
00000040: b79d b73e 70d5 703d 30c0 473e e3c0 4bbd
00000050: e7a3 1cbe c4a7 903d c40a 043d 3d96 1a3e
00000060: c40c 243d 0f99 74bd 9bd1 8cbe 2300 f2bc
00000070: ea13 46be d5c9 03bd 65c0 903d 5fd7 2f3e
-0.118935294 -0.120659925 -0.10896836 0.049983237 -0.19045748 -0.15671833 -0.0016390345 0.29461053
0.14222097 0.04169626 0.26018614 0.05983769 -0.14029251 0.13416335 0.06837086 0.08044285
0.35862514 0.0587973 0.19506907 -0.049744498 -0.15296899 0.07063249 0.03223683 0.15096374
0.040051237 -0.05971628 -0.27503666 -0.02954108 -0.19343534 -0.032174904 0.07067946 0.17172001

input_edgeconv.graphconv.nn.convnetwork.7.weight f4 [32]
00000000: 3c32 8c3f 132a 473f 12ca 6d3f 4b7f 973f
00000010: 2c5f 3c3f 79b6 813f 9420 323f d8db 723f
00000020: 3e67 a13f 7b36 383f 8bb3 9d3f c271 753f
00000030: 1e08 433f 4181 893f b73d 3c3f d50e 793f
00000040: 8775 933f 5a39 7c3f 1a99 763f 74fb 923f
00000050: 9c32 6a3f 74d1 813f 3fba 383f 875b 8a3f
00000060: 510e 5b3f 3228 823f c5f4 803f c808 943f
00000070: 06f9 753f 5b73 593f 7d77 893f c8bc 9a3f
1.095283 0.77798575 0.9288646 1.1835722 0.7358272 1.0133811 0.6958096 0.94866705
1.2609632 0.7195813 1.2320417 0.95876706 0.7618426 1.074257 0.7353167 0.97288257
1.1520241 0.9852501 0.96327364 1.1482987 0.91483474 1.0142045 0.7215919 1.0809182
0.8556872 1.0168517 1.0074698 1.156518 0.96083105 0.84941643 1.073959 1.2088861

input_edgeconv.graphconv.nn.convnetwork.7.bias f4 [32]
00000000: df9d 32bf e622 c1be 4f75 d13e 1f04 1f3c
00000010: 9b99 113f d7e3 dbbc 3281 c0be 1296 c33d
00000020: 4524 a13d 5b33 cbbe e408 873e 915d 12be
00000030: d850 283d 73a6 64be 03ec 27be 4c88 583e
00000040: 0198 233f 9f52 d73d 9c26 953c 6947 c8bf
00000050: 39e6 72be 7557 04be 9d9a 96bb 9964 3cbd
00000060: 3370 e83c a738 f93d 7259 223e b925 c1be
00000070: a086 65be 21fc 913d 2865 ebbc 7a8f f9bd
-0.6977214 -0.37721938 0.40909812 0.009705572 0.5687501 -0.026842041 -0.37598568 0.09550108
0.07868246 -0.3968762 0.2637397 -0.14293505 0.041092724 -0.2232912 -0.16398625 0.21145743
0.63903815 0.105138056 0.018206887 -1.5646793 -0.23720635 -0.12923987 -0.004596068 -0.045994375
0.028373813 0.12169009 0.15854433 -0.37724093 -0.22414637 0.07128168 -0.028734758 -0.12185569

input_edgeconv.graphconv.nn.convnetwork.7.running_mean f4 [32]
00000000: 77cb 06bf eabe a4be 29a0 80bf a5d6 b6be
00000010: c4da a1bf 12ea 19bf 2eba 82bd f775 763d
00000020: 025a 84bf 233e 05bd 7c43 c4be f45a bfbe
00000030: 0868 96bf a593 06bf c849 383e ca64 4dbf
00000040: 2055 c23d e6ed 13bf 4802 a2bf 12cf e3be
00000050: e946 2bbf 5609 a03e 669f 0abf 6daa 6e3e
00000060: 0811 59bf 86a8 6f3e 7f3d 463e ae26 1bbf
00000070: 7cd7 87bf 84d6 073e 3a7a 933e 7bb4 36be
-0.5265421 -0.32176906 -1.0048877 -0.35710636 -1.2644887 -0.6012279 -0.06383167 0.060171094
-1.0339968 -0.03252996 -0.38332736 -0.3737408 -1.1750498 -0.5256904 0.17996895 -0.80231917
0.094888926 -0.5778488 -1.2656946 -0.4449392 -0.66905075 0.31257123 -0.5414947 0.233072
-0.8479161 0.2340413 0.19359396 -0.60605896 -1.0612636 0.13265425 0.2880419 -0.17842285

input_edgeconv.graphconv.nn.convnetwork.7.running_var f4 [32]
00000000: d171 503f 61c5 543f fdf0 4a3f 0f7e a33f
00000010: 0073 4440 a959 503f 643c 0e3f 7a8c ba3f
00000020: 6c6d a13f d124 b13f 9cb0 e43f 4ff4 bf3f
00000030: 5806 5840 84c5 b03f a19a b03f fddf 1840
00000040: bf65 8140 6b8b 9d3f 943b 573f 9471 3d3f
00000050: beb9 fd3e 0935 653f 25b4 c03f 5479 823f
00000060: 4a0d 8c3f 0416 b93f 5212 413f bc5d b13f
00000070: 9aaf 603f 88b0 4140 bf24 a53f 463b 5e3f
0.8142367 0.83113676 0.7927397 1.2772845 3.069519 0.8138681 0.555609 1.457412
1.2611518 1.383936 1.7866397 1.4996432 3.3753872 1.3810277 1.3797189 2.3886712
4.04367 1.2308172 0.84075284 0.7400143 0.49555773 0.8953405 1.5054976 1.0193276
1.0941556 1.4459844 0.7541858 1.385673 0.87767947 3.0263996 1.2901839 0.86809194

edgeconv1.dynamicgraphconv.nn.convnetwork.0.weight f4 [64, 64]
00000000: 550d a0bd 4fa2 aebd 4f35 bcbd d648 c33b
00000010: 0a69 3dbf 45e2 ae3b d28b 823d 5577 b43d
00000020: 5107 e1bd a2cd 163d cdd9 893c 2a7d 1bbe
00000030: d66d 1fbf 0311 8a3d c47c 3dbe 0a20 0cbe
00000040: 3b22 a9be c1a2 04be 0248 40be 975f 78be
00000050: 7811 8b3d 0b04 5f3e 7cd1 0abf b770 0fbe
00000060: ff25 d8be aa9a f7bc 15d2 ce3b 6bc2 cc3c
00000070: 8c82 a6be 0265 8dbb 5dd4 b5bd 78f1 50bb
00000080: 306a adbd 7cf2 6fbd 403b 6dbc 6ec3 17bd
00000090: 4600 cf3e a929 27be 29c5 9ab9 2bbe 4fbe
000000a0: 3b53 0e3e ae31 23bd 9cff 4ebe 2a25 c33d
000000b0: 76cb 0e3e 6702 acbe 596b a13e f76a 24be
000000c0: 039f f4bd f40a dfbd 3afe e7be beac 953e
000000d0: f703 e8be 467f 653f 610f 863e 4874 e33e
000000e0: 9732 6cbc ee45 5fbe 9db7 1a3e 4176 ef3d
000000f0: 84d6 1f3d 38bb aabd 0e83 65be e9fd a2bd
00000100: cb6f ffbd a963 b73e 704a 53bd 011f 33bf
00000110: ba13 32be f89e 1a3e c09a ac3e c564 793e
00000120: b075 293d bf6e 4e3e 95d4 07bf 2245 693e
00000130: 9195 b739 5e51 013e 24f0 6c3e 60c6 4ebe
00000140: b35a d03d 1341 d63d 091a 77be 872a 10bf
00000150: ad67 82bc c8a2 6ebd 58f8 843e 6341 5e3e
00000160: 460d 9fbd 89b9 3f3e 757f 043e 63cb c8be
00000170: 1d30 a83b 1f2d 4f3e da4f de3e 0cdc 0dbf
00000180: 6422 13bb 47e9 c7bd fbe4 a53e 7222 ddbd
00000190: ffc2 a73e 05ef 84be 261a 2bbf d99d bfbd
000001a0: f1d8 2e3d a9f3 9a3d 0179 2f3e 5175 4fba
000001b0: fdee 633d 27c1 b23d a45f abbe 2878 d93d
000001c0: b60e 7abe 0355 603c d18d d83d 0bc9 803e
000001d0: 2236 0b3e d54e 3dbe 9eb0 d7be c95f 843d
000001e0: 2b62 49be 7d07 413e 3889 be3e f883 19be
000001f0: 831b c9bd d2b6 68be bee4 85be f5c6 053e
00000200: 35a5 1abf 29a1 3abe d6c8 85bc 1d54 18be
00000210: 0cc0 c03e c55a abbd fe44 fe3d fb4c d63e
00000220: 49a3 2bbf 750a 0e3e b3a7 893e 2cc4 583e
00000230: 7a5b 6c3d e0ff e23d 4622 7abe 33d9 753e
00000240: 4788 ef3d e743 6b3e 3513 d9be be1a edbe
00000250: eb0c 64be 4ea4 f13d 63ec 9a3d 9f45 8b3e
00000260: 7f46 36be 882d 47be 1e9c 813e 4238 30be
00000270: de3f 01be 3394 8c3e 918b 97be a014 573e
00000280: 520f cc3e 1187 91be 3ed5 0b3e be36 ecbb
00000290: 06f9 9bbe 67e0 89be 052d efbc 5dda a9bd
000002a0: 5b2c 39be c3fe 43bd aea1 66be 9989 49be
000002b0: 7b7b 40be 2002 efbe ba67 4e3c 6524 85bd
000002c0: ae9f d73c c92f 12bd 8dc2 17bf 10cf 823e
000002d0: 592a b5bc ff99 073e 45d6 dabd 4f69 94bd
000002e0: 37e8 b63e ae74 073e ea41 9ebe 65b1 0e3e
000002f0: 0460 c5be b561 833e 0e9f c1be 3b73 87bd
00000300: 1dd9 423e ae8d 99be d701 003f 80bb 803e
00000310: 76ef 283e 566b ecbd d941 2a3a 3f68 8bbe
00000320: 3dcd e33d e2dc 0dbe 59a3 4a3e 2246 033d
00000330: b43b a8bd 4da0 113d 878c 60be d190 f23d
00000340: 9557 973d a12f 5a3e 4c06 b33c 8465 473e
00000350: 2a42 10bd 6929 8b3e 6b2f 1bbd d856 993e
00000360: ee2b 62bc a98f 5e3d b478 8fbd 8eca 713e
00000370: d743 743b f8b4 8d3e ee2d 1fbe 492e 083e
00000380: a5f3 053f cc0d 61be 630d 2e3e 4c8e 8e3e
00000390: 74ea be3e f482 48be 7d61 993d 3874 893f
000003a0: d726 5e3e 164b bdbd a22b 853e fa47 8b3e
000003b0: 7230 d23d 0fbc 4dbe f507 cb3d a197 c9be
000003c0: b03d 50be eb7e 033f d6b4 4a3e 0caa 0a3e
000003d0: afeb f03c 2ce5 61bc dd0a dabe b24d bd3e
000003e0: dc1a e5be f12c 273e 8ccf 3b3e cdcd 90be
000003f0: d367 eabe 21dc 7dbe e855 923e ffaf f43e
-0.07815043 -0.08527052 -0.09189855 0.0059596105 -0.739884 0.005337032 0.06374325 0.08811823
-0.109877236 0.0368172 0.016827488 -0.15184465 -0.6227697 0.06741526 -0.18504626 -0.13684097
-0.33033928 -0.1295271 -0.18777469 -0.24255215 0.06790441 0.21778886 -0.542259 -0.14007841
-0.4221649 -0.030225117 0.006311665 0.02499505 -0.32521474 -0.0043150196 -0.08878396 -0.0031882208
-0.08467519 -0.05858086 -0.014479458 -0.03705161 0.40429896 -0.16324486 -0.00029520065 -0.20287387
0.13898937 -0.0398423 -0.20214695 0.09528573 0.13944802 -0.33595583 0.31527212 -0.16056429
-0.119443916 -0.10890761 -0.45311147 0.29233354 -0.45315525 0.8964733 0.26183608 0.44424653
-0.014416358 -0.2180402 0.15109105 0.11692477 0.039022937 -0.083364904 -0.22413275 -0.07958586
-0.12472495 0.35818222 -0.05158466 -0.69969183 -0.17390338 0.15099704 0.33711815 0.24354847
0.041372 0.20159434 -0.5305875 0.22780278 0.00035015916 0.12628695 0.23138481 -0.20192862
0.101735495 0.10461631 -0.24131025 -0.5631489 -0.015918577 -0.05826071 0.2597072 0.2170463
-0.077662036 0.1872312 0.12939246 -0.39217672 0.0051326887 0.20232056 0.43420297 -0.5541389
-0.0022450918 -0.09761291 0.3240126 -0.107975855 0.32765958 -0.25963607 -0.66836774 -0.09356279
0.04268736 0.07566006 0.17136003 -0.0007913905 0.05564784 0.08728247 -0.33471406 0.10618621
-0.24419674 0.013692143 0.10573924 0.25153384 0.13594869 -0.18487103 -0.42126936 0.06463582
-0.19666354 0.18850513 0.37214065 -0.14991748 -0.098197006 -0.2272599 -0.2615108 0.13064177
-0.60408336 -0.1822554 -0.016331118 -0.14875837 0.3764652 -0.08366922 0.12415503 0.41855606
-0.6704603 0.13871177 0.26885757 0.21168584 0.057704426 0.110839605 -0.24427137 0.24008636
0.11695915 0.22975121 -0.42397466 -0.46309465 -0.22270553 0.11798917 0.075646184 0.27201554
-0.1780033 -0.19450963 0.2531442 -0.1720896 -0.1262202 0.27456817 -0.29598668 0.21003962
0.39855438 -0.2842336 0.13655564 -0.007208674 -0.30463427 -0.26929018 -0.029196272 -0.082936026
-0.18083327 -0.04785038 -0.22522613 -0.19681396 -0.18797104 -0.4668131 0.0125979725 -0.06501082
0.026321258 -0.035690103 -0.59281236 0.255486 -0.02211492 0.13242339 -0.106854 -0.072466485
0.3572404 0.13228104 -0.30909663 0.13934858 -0.38549817 0.25660482 -0.37816662 -0.06613775
0.19028135 -0.29990906 0.5000281 0.2514305 0.16497597 -0.1154391 0.00064947974 -0.2722797
0.111231305 -0.13853791 0.19788875 0.032049306 -0.082145125 0.035553265 -0.21928607 0.11844028
0.07389752 0.21307231 0.021853589 0.19472319 -0.03521935 0.2718003 -0.03788702 0.2994907
-0.013804419 0.054336224 -0.07005444 0.23612425 0.003727188 0.2767713 -0.15544865 0.13298906
0.523249 -0.2197792 0.16997294 0.2784294 0.3728825 -0.19581205 0.074892975 1.0738592
0.21694504 -0.09242837 0.26009852 0.2720335 0.102631465 -0.2009127 0.09913627 -0.39373496
-0.20336032 0.51365536 0.19795546 0.1354143 0.029409258 -0.013787549 -0.42586413 0.3697334
-0.44747055 0.16325738 0.18340892 -0.28282014 -0.45782337 -0.24791004 0.28581166 0.47790524

edgeconv1.dynamicgraphconv.nn.convnetwork.0.bias f4 [64]
00000000: 44e8 2d3d e4c0 e0bc d014 bfbd 5c29 bb3c
00000010: f94e 62bd 2f44 b73d e870 903d dccd 0abb
00000020: 9315 99bb 2665 0e3d 7b31 79bd f059 72bd
00000030: 1b8b 053a 7cb6 8abd 7125 373d 43e0 bcbc
00000040: 2017 aabd ab64 cf3d d7cb 58bd 5af3 033e
00000050: 9d08 a3bd bc1f 4dbe a74b a03b 1d48 313d
00000060: e5f6 eebd b1d4 1f3b 76f1 493c bb00 62bd
00000070: 0cba 0e3c 80cf 79bd d5f6 42be 8818 003d
00000080: edb1 a0bd da4b 2f3d a937 3ebd c50b 66bd
00000090: ef32 56be f24b 86bc 42c0 0abe 4e0b e3bd
000000a0: 9022 9ebd de3c 193e 59a1 0dbe 7588 d7bd
000000b0: fb65 8ebd 8967 363e 192d 0fbe ff2b d63d
000000c0: efb4 d83d 57a4 0a3d 8be2 80bd c626 603d
000000d0: c9eb 05be c40d 06bc 6113 11bd 1ed5 2b3e
000000e0: bfd3 d13d 3ba3 173c 4802 453e 31fb cfbc
000000f0: 6444 27bd 30c9 3c3d b115 a7b9 7d2e 923d
0.042457834 -0.027435727 -0.093301415 0.02284687 -0.055251095 0.08948552 0.07052785 -0.002117983
-0.0046717613 0.03476443 -0.060838204 -0.059167802 0.00050942757 -0.067730874 0.04471344 -0.023056155
-0.08305192 0.10126623 -0.05292877 0.128858 -0.07960627 -0.20031637 0.004891831 0.043281663
-0.11668185 0.0024388249 0.012325635 -0.055176478 0.008711349 -0.060988903 -0.19039471 0.031273395
-0.07846437 0.042796947 -0.0464398 -0.056163568 -0.20917867 -0.016393635 -0.13549903 -0.110861406
-0.07721436 0.14964625 -0.1383108 -0.10524074 -0.06953045 0.17812933 -0.13982047 0.1045761
0.10581385 0.033848133 -0.0629321 0.054724477 -0.13078226 -0.008181993 -0.03541887 0.16780517
0.102454655 0.009255226 0.19239151 -0.025388332 -0.040836707 0.046090305 -0.00031868884 0.07137773

edgeconv1.dynamicgraphconv.nn.convnetwork.1.weight f4 [64]
00000000: 0261 883f 4670 2a3f c540 8f3f 08c4 813f
00000010: 2275 e23e a769 453f 36c4 8d3f 1fe4 6a3f
00000020: bec8 7b3f fa96 8d3f 2bc7 773f 1cf7 833f
00000030: 043e 893f ee98 333f d296 863f 981f 733f
00000040: f5bf 8f3f 12dd 1c3f 7ea3 923f 4246 813f
00000050: a12f 8f3f 8d4e 7c3f c250 933f 4dad 533f
00000060: eacf 5b3f ad3b 733f 246a 6c3f affd 7e3f
00000070: 91ba 843f bb4d 8e3f f937 7a3f b8d5 6b3f
00000080: 395d 533f c672 2b3f 9e00 873f 9779 963f
00000090: e814 5b3f 3f25 5a3f b77f a03f 6037 7e3f
000000a0: 0bbb 793f 509e 8f3f 7203 683f f882 663f
000000b0: 717e 863f 9213 923f a9b1 783f 218c 283f
000000c0: 9bf9 a13f d67a 113f 0db8 743f 79d1 723f
000000d0: 95ef 853f c630 463f e044 5c3f 2d3d 9b3f
000000e0: 7a82 923f 5e7d 833f aa8c 953f 4ee0 993f
000000f0: be20 823f 2cbd 693f ae8a 893f b0d6 c23e
1.0654604 0.66577566 1.1191641 1.0137949 0.4422999 0.7711434 1.1075504 0.91754335
0.98353183 1.1061699 0.9678828 1.0309787 1.0722051 0.7015523 1.0514777 0.94970083
1.1230456 0.61274827 1.1456144 1.0099566 1.118641 0.9855736 1.150902 0.8268631
0.85864127 0.95012933 0.9234946 0.9960584 1.0369436 1.1117471 0.9774166 0.92122984
0.8256412 0.66972005 1.0547063 1.1755856 0.85578775 0.85213083 1.2538975 0.99303246
0.9755103 1.1220188 0.9063026 0.9004359 1.0507337 1.1412222 0.9714609 0.6583882
1.2654299 0.5682806 0.9559334 0.9485088 1.046374 0.7741817 0.86042595 1.2128044
1.1446068 1.0272634 1.1683552 1.2021577 1.0166242 0.9130428 1.0745447 0.3805442

edgeconv1.dynamicgraphconv.nn.convnetwork.1.bias f4 [64]
00000000: f88d 8dbe 90f2 f4be 6631 06bf ce91 6c3e
00000010: a07a 03bf aa91 3ebf c7f9 5d3c c5a3 a7be
00000020: 4663 05bf 1ff4 0bbf 9dfa 8abe c492 9fbe
00000030: a514 bebd adf1 12be 6ff0 0b3d de64 0ebf
00000040: 8f2f cbbe 1ba1 e9be 80c4 23bc 3dba a9be
00000050: 8831 86be 07be dabe b764 97be 93f3 0fbf
00000060: 76c0 8c3c e06d 823c b902 b2be fa32 b0be
00000070: 75a8 72bc 0606 2bbd 47c4 fabe ccdd ddbd
00000080: 2b1f a3be 861a f0be 7888 11bf 96ef dcbb
00000090: 5875 65be 5da8 1bbf 996c a9be 1591 f9be
000000a0: b35b b4be 9d43 94be d34f d2be bcbf 6bbe
000000b0: 3979 1ebe 736c 8ebc a18d adbd 269b 1bbf
000000c0: 17e0 3c3d 5681 d9be 83f1 2abf 8269 fa3e
000000d0: d3a6 e5bd 15de 8e3e f6a6 0cbe 43cd 983e
000000e0: 8315 d63e d390 b83c b5a3 c43d 4eb9 ebbe
000000f0: a43e 4cbd 3542 20bf 9c74 94be b8f9 ffbe
-0.27647376 -0.4784131 -0.52419126 0.23102495 -0.51358986 -0.74441016 0.013548321 -0.32742134
-0.52104604 -0.54669374 -0.27144328 -0.3116666 -0.092812814 -0.14350004 0.034164842 -0.5562266
-0.39684722 -0.45630726 -0.00999558 -0.331499 -0.26209664 -0.42723104 -0.29569027 -0.5623104
0.017181616 0.015921533 -0.34767702 -0.34413892 -0.014810671 -0.04175379 -0.48977873 -0.1083332
-0.31859717 -0.46895236 -0.5684886 -0.006742428 -0.22408044 -0.60803777 -0.33090666 -0.487435
-0.3522621 -0.28957835 -0.41076526 -0.2302236 -0.1547593 -0.017385697 -0.08474279 -0.6078361
0.046112146 -0.42481488 -0.6677477 0.4890862 -0.1121346 0.2790381 -0.13735566 0.29844102
0.41813287 0.022529995 0.09601537 -0.46039814 -0.049864426 -0.62601024 -0.28995216 -0.49995208

edgeconv1.dynamicgraphconv.nn.convnetwork.1.running_mean f4 [64]
00000000: 7406 c6bf 55a7 c6bd d9f6 423e 8184 8a3f
00000010: 54c2 423f 784a 0dbf 29e9 413f c1bf 52bf
00000020: 357d 4cbe b6d4 bebe c41a 28bf f138 4bbf
00000030: ff49 87bf 5402 1cbe 398f 2cbf fa6b c1be
00000040: dc42 f03e 88bc c1be 5cdd 483f a84e cd3f
00000050: 2a95 5dbe 0bb2 c63e 8465 833f 778e 13bf
00000060: 6f12 cd3e cb71 a4bf 0316 96be 7b69 7bbe
00000070: fefd a6bf 38d8 2cbf cec7 2ebe c533 22be
00000080: f602 0e3f a4ac 21bf d838 a5be 606b 1d3f
00000090: b62d aabf c5e3 503e b0cc 93bf cff0 9e3f
000000a0: 1a35 e7be ce27 8bbe 95c3 c73f 71aa eabe
000000b0: e9aa 80bf 21f0 5c3f 0e8d b2be 634b d4be
000000c0: 061e a83e 48df 9cbe cc5e f0bf d9ae c4bd
000000d0: cafc 89bf 48a6 77bf ad7d 80bd a86f 64bf
000000e0: 0e26 9cbc 602a 4ebf 247b 83bf c3bf 343f
000000f0: d9e0 853f 67dd f7bd a8e0 823f aadc a43b
-1.5470719 -0.09699885 0.19039477 1.0821687 0.7607777 -0.55191755 0.757464 -0.82323843
-0.19969638 -0.3727166 -0.6566584 -0.7938376 -1.0569457 -0.15235263 -0.6740604 -0.37777692
0.4692601 -0.3783915 0.7846277 1.6039629 -0.21638933 0.3880771 1.0265355 -0.5763926
0.40053126 -1.2847227 -0.2931367 -0.24551956 -1.3046262 -0.67517424 -0.17068407 -0.15840061
0.5547327 -0.63154054 -0.3226993 0.61491966 -1.32952 0.20399387 -1.1546841 1.2417239
-0.451577 -0.27178806 1.5606562 -0.4583316 -1.0052158 0.8630391 -0.3487324 -0.41463766
0.32835406 -0.306391 -1.877893 -0.09603662 -1.078027 -0.967381 -0.06273971 -0.89232874
-0.019061115 -0.8053341 -1.0271955 0.70605105 1.0459243 -0.12102776 1.022481 0.005031188

edgeconv1.dynamicgraphconv.nn.convnetwork.1.running_var f4 [64]
00000000: d289 103f 1ee8 0140 ae6a a13f 0413 0f3f
00000010: 4c95 9e3f f4eb 2f3f 32e1 253f 0f9a 1740
00000020: f46e f63e 09d1 633f 3264 4b3f d0e8 903f
00000030: 768c 3440 1fb1 323f 9e61 7a3f 0151 433f
00000040: 758d 403f 4deb 0040 dd82 5f3f f35a bc3e
00000050: b9f8 c53f 7ae1 193f e8a0 4b3f 1baf ee3f
00000060: c325 023f 268d c33f 672d 233f 0ce6 1b3f
00000070: 403f 903f b0c8 103f 4935 b13f 4709 383f
00000080: 1a75 e03e 3f1d 573f 38e2 5e3f f5a5 943f
00000090: 606d 813f e985 1d3f b3b4 c13e 5a08 2e3f
000000a0: c94f 313f 3c15 503e cf50 233f e623 4840
000000b0: 9d8b c83e e7cf 093f 91b7 cf3f 2708 923f
000000c0: 3798 ec3e f378 653f c169 b73f 3397 363f
000000d0: bf3e 8b3f b5f0 a03f 9088 833f 5c6d 0c3f
000000e0: 40aa 443f c9c6 823f 807e 0b3f d574 333e
000000f0: 6b1a ff3e cbbb d43f 6f5b d13f 4367 a13f
0.564603 2.0297923 1.2610681 0.5588839 1.2389312 0.6871941 0.64796746 2.368778
0.48131526 0.8899084 0.7944976 1.1321049 2.821073 0.69801515 0.978052 0.7629548
0.75215846 2.0143616 0.87309057 0.3678814 1.5466529 0.60109675 0.795424 1.8647188
0.5083887 1.527745 0.63741153 0.608979 1.1269302 0.56556225 1.3844386 0.71889156
0.4383934 0.84029 0.8706393 1.1613146 1.0111504 0.61532456 0.37833175 0.67981493
0.6926237 0.203206 0.6379518 3.127191 0.39169016 0.5383286 1.6227895 1.1408738
0.4620988 0.8963768 1.4329149 0.7132446 1.0878524 1.2573458 1.027605 0.5485437
0.7682228 1.0216914 0.544899 0.17525037 0.49824843 1.661981 1.6356028 1.2609638
