models/TracksterGraphNet.101e-CloseByPion200PU.r15.e5.f400.pt (torch, 205002 bytes, 60 tensors)

norm.weight f4 [39]
00000000: 0000 803f 0000 803f 0000 803f 0000 803f
00000010: 0000 803f 0000 803f 0000 803f 0000 803f
00000020: 0000 803f 0000 803f 0000 803f 0000 803f
00000030: 0000 803f 0000 803f 0000 803f 0000 803f
00000040: 0000 803f 0000 803f 0000 803f 0000 803f
00000050: 0000 803f 0000 803f 0000 803f 0000 803f
00000060: 0000 803f 0000 803f 0000 803f 0000 803f
00000070: 0000 803f 0000 803f 0000 803f 0000 803f
00000080: 0000 803f 0000 803f 0000 803f 0000 803f
00000090: 0000 803f 0000 803f 0000 803f
1.0 1.0 1.0 1.0 1.0 1.0 1.0 1.0
1.0 1.0 1.0 1.0 1.0 1.0 1.0 1.0
1.0 1.0 1.0 1.0 1.0 1.0 1.0 1.0
1.0 1.0 1.0 1.0 1.0 1.0 1.0 1.0
1.0 1.0 1.0 1.0 1.0 1.0 1.0

norm.bias f4 [39]
00000000: 0000 0000 0000 0000 0000 0000 0000 0000
00000010: 0000 0000 0000 0000 0000 0000 0000 0000
00000020: 0000 0000 0000 0000 0000 0000 0000 0000
00000030: 0000 0000 0000 0000 0000 0000 0000 0000
00000040: 0000 0000 0000 0000 0000 0000 0000 0000
00000050: 0000 0000 0000 0000 0000 0000 0000 0000
00000060: 0000 0000 0000 0000 0000 0000 0000 0000
00000070: 0000 0000 0000 0000 0000 0000 0000 0000
00000080: 0000 0000 0000 0000 0000 0000 0000 0000
00000090: 0000 0000 0000 0000 0000 0000
0.0 0.0 0.0 0.0 0.0 0.0 0.0 0.0
0.0 0.0 0.0 0.0 0.0 0.0 0.0 0.0
0.0 0.0 0.0 0.0 0.0 0.0 0.0 0.0
0.0 0.0 0.0 0.0 0.0 0.0 0.0 0.0
0.0 0.0 0.0 0.0 0.0 0.0 0.0

input_edgeconv.graphconv.nn.convnetwork.0.weight f4 [32, 78]
00000000: c824 d0bf 6e17 adbf e780 8ebd c9f6 873c
00000010: e8d1 8bbd d605 b13e 3e28 5a40 278b a5bf
00000020: 7675 bd3e c88b c93e 7cd5 a53d 21d7 24bf
00000030: 296e a23f 35f8 d1be ad77 8f3f 109f b4bf
00000040: ff44 a03c 26b5 08bf 55d9 893f 22b4 fc3d
00000050: f36f 24be 71f8 993e b975 db3d 1648 cd3b
00000060: 17b1 c7bd 40fe 6c3f c129 863f 629e b43e
00000070: 6913 983e 7472 5a3e 7494 833d db50 6e3e
00000080: f8c5 c23e 5fde 1ebe 0cf5 e1bd b0f9 ba3e
00000090: 0ecf 923e 4711 363b deec 303e ae67 2640
000000a0: c7aa 05bf c0f2 963b 6382 a23f d1b4 39bf
000000b0: ac2b 85bf d13c 7ec0 6760 88bf bc1e 15be
000000c0: f1c7 2cbe ed21 4dbe 828f 8fbe 265b 01c0
000000d0: c1bb cabe 37e1 cfbf 328e 0140 20fd e53d
000000e0: fcb8 08bf cf7f 76bf e412 8d3e 5b19 eabe
000000f0: d410 64bf 0a6e 933f 433b fcbe 8991 c83e
00000100: fbec 503c e83f 5e3e 6eaa f43d 3bc1 8c3e
00000110: ec6c c8be 4e18 623d 2385 923e 1f45 7a3e
00000120: 0f9a 6f3f cc7c f0bc d05c aa3d 89b3 85bf
00000130: 499a a6bd 89de 5e3f e842 6bc0 fbce 80be
00000140: 2ab4 d3bc 1cf7 a9bd 0799 efbd 70cd f4bc
00000150: c0d9 4341 ddba 13bf 0369 a1be 1608 5dbe
00000160: 9edb 583b 07e7 0ebe 8788 1a3e f8d6 2d3f
00000170: bf97 983f b5c1 3440 cf96 2f3e 5820 9a3e
00000180: 080b ff3e 05ba e9bb cb2e cabc 7320 0abe
00000190: 5fe1 913d e6be 283e 957a 403d 784c 723e
000001a0: 8854 b93f 5691 0540 b397 0040 51b5 35bd
000001b0: 63d0 1abf 7aa5 ef3f d97c 0540 2a02 9dbf
000001c0: 9875 96bc 6338 863d bf00 9d3f 1190 80bd
000001d0: da25 093f 5024 8e3f 0ac7 efbe e915 293c
000001e0: b0db 89bf 664b 5240 7ce6 6bbf 74e6 00c1
000001f0: d066 be3e e310 cebc 891c 1b3c 40b0 263c
00000200: 1f97 373e 9759 883f acef 0cc0 9c4c 3a3e
00000210: 98f0 dbbf 75aa 263e 73c3 c3bd 6777 203f
00000220: 785c 22bd 4f58 f0bc 05d4 bc3c c54f 2e3e
00000230: e12f 21bd 5a67 97bc 18a8 993d 0cda 29c0
00000240: af20 91bf 067a 4bbf e733 61bf df9f f8be
00000250: d892 7ebf b892 67bf 4b99 d23e eb4c 593c
00000260: a50f 83bc 62f9 d8be d493 6e3d 3ba9 c4be
00000270: 43cd e8c0 6472 d2bd 45b1 873d d40b 58be
00000280: 4183 e03d 5d86 b2bd 9df6 1841 3f2b 903c
00000290: fb9e 01bf c805 223d 9209 8a3b 4f22 e7be
000002a0: fd31 34bf 4a1a 933d 28ed 1a3f 1f8d 78bf
000002b0: 7728 613e e7c2 f5bc 658d c13d 2bc8 2f3e
000002c0: 2375 9fbd 31a3 d7bd 9085 843d f7dc f0bc
000002d0: 386b c73c f20e e73e e41b 8c3f 8d8c 4040
000002e0: 4ee8 4640 0bf7 3fbf a6c4 1abf 8fe7 3b40
000002f0: 7c3d 4040 45ff d4bf f10d cabc 7cb0 083e
00000300: 1fbb e93f 639f f13b 5d65 ef3d d614 fe3e
00000310: 3193 88be a287 50bd c271 9840 67b4 c2bf
00000320: 2f85 c3bd 779a 54c0 ff87 243f 34f1 37bd
00000330: 1a28 903c 7b5b a63c 3f29 31be 7100 3bbe
00000340: ef7f 88bf 2051 2f3e 2d18 883f 6422 90be
00000350: ac10 e2be 29ae 2e3d a96f 61be de49 8c3e
00000360: 15a8 023d 65b3 8ebe edc1 1a3e bb28 cc3c
00000370: 6190 473f 09d1 01c0 aadf b7bf 85f3 b1bf
00000380: da3e babe 741c 6cbf 2c94 afbf a083 a8bf
00000390: 8df7 f43e 631f 92ba 38c3 9d3c b361 2dbf
000003a0: 8906 a1bd 9502 2a3e 0b06 bb40 60e0 a4bf
000003b0: 0755 fabc b2ed 5d3e 4d0b 843d bb97 943d
000003c0: a441 24c1 5ca8 8fbf 3d76 0e3f f640 0d3e
000003d0: 2d7f a63d bafd b8bf d76f 86bf 9427 593f
000003e0: 7f2c e7be fa0e c1bf 71bf f6be ff24 1f3d
000003f0: b7f5 283f f168 0abd db03 203e 7570 2cbd
-1.6261225 -1.3522775 -0.0695818 0.016597169 -0.06827146 0.34574765 3.4087062 -1.2933091
0.37003678 0.39364457 0.080973595 -0.6439076 1.2689868 -0.4100968 1.1208397 -1.4111042
0.01956415 -0.5340141 1.076945 0.12339045 -0.1605833 0.30072358 0.10715813 0.006264697
-0.09750574 0.92575455 1.0481492 0.35277086 0.2970231 0.21332723 0.064247996 0.23273031
0.38041663 -0.15514515 -0.11033067 0.3651862 0.28673595 0.0027781294 0.17277858 2.600078
-0.5221371 0.004606575 1.2696041 -0.7254153 -1.0403953 -3.972462 -1.065442 -0.14562505
-0.16873147 -0.20032473 -0.28039175 -2.0211883 -0.3959637 -1.6240605 2.024304 0.112299204
-0.53407264 -0.9628877 0.27553475 -0.4572247 -0.8908818 1.1517956 -0.49263963 0.39173535
0.012751813 0.21704066 0.119465694 0.27491173 -0.391456 0.05519896 0.286172 0.2444043
0.9359445 -0.029356383 0.08318484 -1.0445415 -0.08134896 0.8705831 -3.6759586 -0.25157914
-0.025842745 -0.082990855 -0.116991095 -0.029883116 12.240662 -0.57707006 -0.3152543 -0.21585116
0.0033089886 -0.13955317 0.15091144 0.6790614 1.1921309 2.824323 0.17147373 0.301028
0.49813104 -0.007132771 -0.024680516 -0.13488941 0.07123064 0.16479072 0.046991903 0.23661983
1.4478922 2.0869956 2.009259 -0.04436237 -0.6047422 1.8722374 2.085745 -1.2266285
-0.01836662 0.06553724 1.2265853 -0.062774785 0.5357338 1.1104832 -0.46831542 0.010320165
-1.0770168 3.285852 -0.92148566 -8.056263 0.37187815 -0.025154537 0.0094672525 0.010173857
0.17928742 1.0652341 -2.2021284 0.18193287 -1.7182798 0.16275962 -0.09558763 0.62682194
-0.039638966 -0.029338984 0.023050318 0.17022617 -0.0393523 -0.018481899 0.075027645 -2.6539335
-1.1338099 -0.7948307 -0.8796982 -0.48559472 -0.99442816 -0.9045825 0.41132578 0.013262968
-0.01599867 -0.42377764 0.05824645 -0.38410363 -7.2750564 -0.102757245 0.06625608 -0.21098262
0.10962535 -0.08717034 9.560208 0.017598746 -0.5063321 0.039556295 0.0042125667 -0.45143363
-0.70388776 0.071827486 0.6051812 -0.97090334 0.21988092 -0.030000163 0.09450797 0.17166202
-0.07786014 -0.10529173 0.064707875 -0.02940224 0.024343118 0.4512859 1.0946012 3.0085785
3.1079288 -0.7498633 -0.6045631 2.9360082 3.0037527 -1.6640402 -0.02466485 0.13348573
1.826023 0.0073737367 0.116892554 0.49625272 -0.26674798 -0.0509106 4.7638865 -1.5211304
-0.09546887 -3.3219278 0.64270014 -0.044907764 0.017597247 0.020307293 -0.1730089 -0.18261887
-1.0664042 0.1712079 1.0632378 -0.28151238 -0.44153345 0.04264656 -0.22015251 0.27400106
0.031898577 -0.27871242 0.1511304 0.024921766 0.7795468 -2.0283835 -1.4365132 -1.3902441
-0.36376077 -0.92230916 -1.3717093 -1.3165169 0.47845116 -0.001114827 0.019258127 -0.677272
-0.078625746 0.16602547 5.8444877 -1.2880974 -0.030558122 0.21672705 0.06447468 0.07255503
-10.266026 -1.1223254 0.5564917 0.13794312 0.081297256 -1.4452431 -1.0502881 0.84826016
-0.45151135 -1.5082695 -0.48192933 0.03885364 0.6599993 -0.033791486 0.1562647 -0.042099435

input_edgeconv.graphconv.nn.convnetwork.0.bias f4 [32]
00000000: 6a51 77bd 0e02 2f3c 2006 6a3d 0e4e c33d
00000010: 3a9d 18bd 12e3 ffbc 29d9 0a3e a507 adbd
00000020: 2237 cf3b 868b 01be cce0 9f3d d135 de3d
00000030: 0a0f 803d e88d a0bd 5856 693c 6169 1f3e
00000040: 6102 723d 4219 223c 6293 43bd f82f 0e3d
00000050: 5752 07bc fa4c e73c f62d 1cbe 4e3e 9ebd
00000060: 5be9 f4bb f896 59bd 9bc5 0a3e f2ff b7bd
00000070: b2e6 623d 6307 cd3d 4207 0a3d 57a3 ba3c
-0.060380377 0.010681642 0.057134748 0.09536372 -0.037259318 -0.031236205 0.13559403 -0.08448724
0.006323711 -0.1265088 0.078065485 0.108501084 0.062528685 -0.078395665 0.014241777 0.15567543
0.0590843 0.009893717 -0.047747977 0.034713715 -0.008259377 0.028234947 -0.15251908 -0.077267274
-0.007474107 -0.05312249 0.13551943 -0.089843646 0.05539579 0.100111745 0.033698328 0.022782965

input_edgeconv.graphconv.nn.convnetwork.1.weight f4 [32]
00000000: a14e 443f 9487 b33f fc4b c73f f4aa 1f3f
00000010: abe8 523f d5dc 383f e1a2 a23f 481e 9e3f
00000020: 4417 863f 3a68 b83f de4e 8b3f 29b1 393f
00000030: 2da6 8a3f 3bab 713f 0560 5f3f a729 843f
00000040: 8a4b 8e3f e4b5 7e3f a68d 393f 1d19 7e3f
00000050: fde5 753f a55b 3f3f 15c5 9f3f 4639 c43f
00000060: 0cc0 a13f b502 203f f3b4 573f 5ad9 a43f
00000070: 48c6 723f 9260 433f b4bc b83f 7cb5 ab3f
0.7668248 1.402575 1.5570064 0.6237023 0.82386273 0.7221196 1.2705957 1.2352991
1.047585 1.4406807 1.0883443 0.7253595 1.0831963 0.944019 0.8725589 1.0325211
1.1116803 0.99496293 0.72481763 0.9925707 0.9605406 0.74749213 1.248202 1.5329978
1.2636733 0.6250413 0.8426048 1.287883 0.94833803 0.7631923 1.4432588 1.341476

input_edgeconv.graphconv.nn.convnetwork.1.bias f4 [32]
00000000: 2810 d6be 6f38 f43d d232 1dbd 7664 9b3e
00000010: 3702 8dbc 1c25 8e3e 2f0d cdbe 4b8f a13e
00000020: 2f6e 2c3e d3fe 933d 58da 88bd 2561 fbbc
00000030: 0189 c6bd 2765 573d 3108 ba3e 88d0 6a3e
00000040: ee80 d5bb 39e1 74bc 7b74 d7bd a4ca d3be
00000050: f52c f83d b7d9 913e a479 28be 1e2d d2bd
00000060: d0e7 973e 807e 5dbe 4cf5 053f 0d47 023f
00000070: 8d0c 40be 3e78 92bd ca0c d3bd b521 363e
-0.418092 0.11924826 -0.038378544 0.30350083 -0.01721297 0.27762687 -0.4004912 0.31554636
0.16838907 0.07226338 -0.06682271 -0.03068597 -0.096941 0.0525867 0.36334375 0.22931111
-0.0065156138 -0.014946275 -0.10520264 -0.4136554 0.1211795 0.28486416 -0.16452652 -0.10262512
0.29669046 -0.21630287 0.5232742 0.50889665 -0.18754788 -0.071518406 -0.10305174 0.17786296

input_edgeconv.graphconv.nn.convnetwork.1.running_mean f4 [32]
00000000: 2221 4f43 4609 35c1 9f88 2cc2 3aa7 85c2
00000010: 1f4f a3c2 0c26 48c0 9cc5 c1c3 7edd 52c0
00000020: 722d 19c2 daef 5cc2 89e6 f042 f964 a942
00000030: 60f4 12c3 4aea 1cc2 c4be d043 8efc 3c42
00000040: 7306 f7c3 bca7 ea42 7091 e742 2be8 88c2
00000050: 7600 4ec3 ef98 4342 f965 94c2 f538 8bc1
00000060: 9b7e b1c3 233e 9540 9e20 59c2 6a50 00c2
00000070: c9d9 3a42 bfde 7f43 e11d 96c2 6eb4 e2c2
207.12943 -11.314764 -43.13342 -66.826614 -81.65453 -3.1273222 -387.54382 -3.2947688
-38.29438 -55.23423 120.450264 84.69721 -146.95459 -39.228798 417.49036 47.246635
-494.05038 117.32761 115.78406 -68.45345 -206.0018 48.89935 -74.199165 -17.402811
-354.9891 4.663835 -54.281853 -32.07853 46.71268 255.8701 -75.05836 -113.3524

input_edgeconv.graphconv.nn.convnetwork.1.running_var f4 [32]
00000000: d5ed 4145 81c7 2d44 7b64 8344 0a65 e644
00000010: 74eb 0445 04de af44 1cda 5345 dd28 6146
00000020: 0b82 0f45 7095 3346 0504 5b45 e914 ee44
00000030: be1b 9b44 c136 8744 d221 2246 ea73 8344
00000040: 868b 1e46 82f6 8b45 011d 0e45 094a b144
00000050: 4311 7844 bf6a 7844 5d5c 8344 cdb1 8944
00000060: a76f b545 ae0a 1945 45b8 0445 bf15 1244
00000070: ae2d 0246 b544 2c45 d7f9 0046 1c71 f544
3102.8645 695.11725 1051.14 1843.1575 2126.7158 1406.938 3389.6318 14410.216
2296.1277 11493.359 3504.2512 1904.6534 1240.867 1081.711 10376.455 1051.6223
10146.881 4478.8135 2273.8127 1418.3136 992.2697 993.6679 1050.8864 1101.5563
5805.9565 2448.6675 2123.5168 584.3398 8331.42 2756.2942 8254.46 1963.5347

input_edgeconv.graphconv.nn.convnetwork.3.weight f4 [32, 32]
00000000: 5c0b 42bf b3d0 8e3e 0ce0 e53e 5493 25be
00000010: 890c 4b3e 3503 b9be dc72 78be fa22 df3e
00000020: 50c2 8e3d 3013 16bf cb14 71be 8f3e a3be
00000030: caa3 d83e 27af 28be 6512 69be 0b61 3ebd
00000040: e541 963e 1ad6 a33e 3457 80be d118 103f
00000050: 9350 a1be 80cd 1dbe 1622 0a3f ba2c c83e
00000060: 093d a5be 0a87 673e f20e 9a3e 663b f73d
00000070: 08a1 a3be 600b 3bbd e5b8 fabe e184 3d3f
00000080: 3f30 31bf 5a82 25bf 802b 43bf 96b5 6c3e
00000090: e723 133e f99c 61be 1436 e93e aae9 073e
000000a0: 137e eebe b147 17be 4129 c8bc 1a5b 9cbe
000000b0: 7526 e0bd 04bd 08be 597f 42bd a168 98be
000000c0: 3ef4 1c3d 5590 d03d 722f ce3e 8ebb 1bbf
000000d0: 60a5 8bbe 0137 49be d915 abbe 3901 53bf
000000e0: 9d42 9b3d 2855 58be 8fc3 9b3e f649 09be
000000f0: fdc2 91bd ed09 a33e 4dee 5f3e 0b3b 38bd
00000100: 9849 583d 2855 8fbf 511c c73d c9ea 8e3e
00000110: 6b27 0cbf aef2 713e 4c51 f1bd 52b1 3ebe
00000120: 96fd cb3d 5c01 f13c 3693 353d 1523 b43d
00000130: ff02 0dbf fa5d 47be 30d2 78be 3634 b43e
00000140: 3f81 993e d72c cebd 6f48 9a3e 2791 08bf
00000150: a178 f3be 062c ffbe 191e 1b3e 05f8 693e
00000160: f49e 21bf aa8d aa3e fba6 bdbe 585b 26bf
00000170: f2fa 4c3e d585 653e 4438 b0be b58e e8bd
00000180: 3294 01bf e92e cabe f251 48bf 8600 5b3e
00000190: d2ce ddbd a4a3 b6bb 807c 423e f2e7 9cbe
000001a0: 54b1 65be 0217 f6be 7d27 8f3d a439 78be
000001b0: cdba b6be 0121 263d b6a6 31bf 63ee 833e
000001c0: 5caf 443e ce0b 223e 8cdd b9be c4c3 3fbe
000001d0: 3b9e ba3e d15b bebc 1eea 363e f534 20bf
000001e0: fb88 34bf fc44 aabe 8439 c4be 10bc 4bbe
000001f0: 9712 09bf fa21 72be 176f 9d3e 5f6f 753c
00000200: 6ac9 88bc b85a d3be 6b77 83bf c6eb 843e
00000210: 1775 f13e 913b 42be 9769 1c3d 2a83 31bf
00000220: f8c8 343e aa14 343f 3059 993e 07f8 4c3e
00000230: 326e 0a3e 19aa 183e a19d 30bf a5e6 7ebe
00000240: 266b a13c 6996 b4be 0d33 a03e 360f 03be
00000250: d96b 213e 6250 7bbe e17a a9be bb7c 20bf
00000260: b8be 0b3e 24f0 dc3d cfd5 753e 45c3 cd3e
00000270: c224 d93c 0d2a bebe a35e cfbd ba64 8dbe
00000280: 7844 25be ef4f 313e 2131 95bd e593 bdbc
00000290: 8e0c 8abe f369 873e 10cf df3e e6d8 213d
000002a0: a0af 3fbf 4a87 153f 76b4 23bf e3b5 9abf
000002b0: 6c5a d83d fb3e ae3e d7e1 88be 0f47 79bd
000002c0: e2db 67be d2db 5ebe 7871 4a3e 619b b33c
000002d0: 8d43 acbd 45b8 1dbf b877 4bbe 96cb e6bd
000002e0: 64aa ef3d e980 8fbe 23af 9a3d f84c b9be
000002f0: f572 e9bd 64b3 53bf e370 723e 5d45 473f
00000300: 0d11 953e d777 e8bc 70bd 893e c361 0e3f
00000310: ef0e 2abe 7f4d aa3e 3010 bc3e c6b5 7c3d
00000320: 7a76 1d3f 867e 02be 0fe0 7b3d 8650 14be
00000330: 968d 3ebb 2632 ef3e c029 383e b358 e83e
00000340: a3bc 4d3e 787d 4f3e 9f56 ff3e 7f84 b03e
00000350: d0af f83e f43f 383f 5359 a53e e4a3 bf3e
00000360: 6145 54bf 888f bfbd 0c41 3fbe adb6 d0bd
00000370: 6fc8 353f 2596 1f3f 804b ab3b d1c2 99be
00000380: 4b74 393e fb01 78be a1bd f13d ad9b 073e
00000390: 9953 313f 728a 233f 5d34 8dbd c793 983d
000003a0: 1522 60be 565e 053e 3c94 923e 24b2 c43e
000003b0: 0047 96be df3a 53be fb8d 9dbe a32f 03be
000003c0: 02af cbbd 81b9 8dbd 630e 963e c51f 833d
000003d0: 0813 5f3e b691 b73c 0b68 b63e b190 353e
000003e0: f076 05be f424 3f3f 9743 8bbe 66f4 53bf
000003f0: f4e3 d53c 5ff9 4dbe 0e5a 6abc 5593 76bf
-0.75798583 0.278936 0.44897497 -0.16169482 0.19829 -0.3613526 -0.24262565 0.43581372
0.06970656 -0.5862303 -0.23543088 -0.31883666 0.4231246 -0.16473065 -0.22760923 -0.046479266
0.2934715 0.31999284 -0.2506653 0.56287867 -0.31506786 -0.15410423 0.5395826 0.39096624
-0.3227313 0.22610107 0.30089527 0.12071876 -0.31958795 -0.045665145 -0.48969188 0.7403088
-0.6921424 -0.64652026 -0.7623825 0.23116145 0.14369164 -0.22032537 0.4554907 0.1327273
-0.46580562 -0.14773442 -0.024433734 -0.30538255 -0.10944835 -0.13353354 -0.04748473 -0.29767326
0.038318865 0.10183779 0.40270573 -0.6083306 -0.2727461 -0.19649889 -0.33415106 -0.8242374
0.07581065 -0.21126235 0.30422637 -0.1340712 -0.07117269 0.3184351 0.21868248 -0.044978183
0.05280456 -1.1197863 0.09722198 0.27913502 -0.5474765 0.23627731 -0.11783084 -0.1862233
0.09960477 0.029419594 0.044329844 0.08795754 -0.55082697 -0.19469443 -0.2429893 0.35196084
0.2998142 -0.10067146 0.30133387 -0.53346485 -0.4755297 -0.49838275 0.151482 0.22848518
-0.6313317 0.33311206 -0.37041458 -0.6498313 0.20017603 0.22414334 -0.34417927 -0.11355344
-0.50616753 -0.39488915 -0.7825004 0.21386918 -0.108304635 -0.0055737067 0.18992805 -0.3064571
-0.22430927 -0.4806443 0.06989954 -0.24240738 -0.35689393 0.04055882 -0.69395006 0.25767812
0.1920752 0.15824816 -0.3630184 -0.18727022 0.36448845 -0.02323714 0.17862746 -0.62580806
-0.70521516 -0.33255756 -0.3832513 -0.19895959 -0.5354399 -0.23645774 0.30748817 0.014980166
-0.016697604 -0.4128015 -1.0270818 0.2596113 0.47159645 -0.18968035 0.038186636 -0.69340765
0.17654788 0.7034403 0.29950857 0.2001649 0.13518599 0.14908637 -0.6899052 -0.24892671
0.019704413 -0.35271004 0.3128895 -0.12798771 0.15763797 -0.24542382 -0.33101562 -0.62690324
0.13646972 0.10787991 0.24007343 0.4018804 0.026506785 -0.37141457 -0.101254724 -0.2761591
-0.161394 0.17315648 -0.07284761 -0.02314181 -0.26962703 0.2644802 0.43712664 0.03951349
-0.7487736 0.5840956 -0.63947237 -1.2086757 0.105641216 0.34032425 -0.26734802 -0.060858782
-0.22642472 -0.21763542 0.19769847 0.021924676 -0.08411322 -0.616093 -0.19869888 -0.112693
0.11702421 -0.28028038 0.07552936 -0.36191535 -0.113988794 -0.82695603 0.23675875 0.77840215
0.2911457 -0.028377457 0.26902342 0.5561792 -0.16607259 0.3326225 0.367311 0.06169679
0.61508906 -0.12743577 0.061492976 -0.14483842 -0.002907609 0.46717948 0.17984676 0.45380172
0.2009149 0.20262706 0.49870774 0.34476086 0.48571634 0.71972585 0.3229471 0.37429726
-0.82918364 -0.09353548 -0.18677157 -0.10191093 0.7100896 0.6233848 0.005227506 -0.30031446
0.18110768 -0.24219505 0.11803747 0.1324298 0.69268185 0.63883126 -0.06894753 0.07450061
-0.21888001 0.13024268 0.2862872 0.3841716 -0.29351044 -0.20627926 -0.30772385 -0.1281114
-0.099454895 -0.06920148 0.2930785 0.06402544 0.21784604 0.022408348 0.35626253 0.17730977
-0.13033652 0.7466576 -0.27200004 -0.827948 0.026109673 -0.20114659 -0.014303697 -0.9631856

input_edgeconv.graphconv.nn.convnetwork.3.bias f4 [32]
00000000: 53ca 28be b82b 213e 215c bc3d 3558 2abc
00000010: 6d0f 6f3e 90c5 56bd 54d9 703e c3bb debd
00000020: 3e4a 1cbc db8e 23be 4aed 963b 6eba 2abe
00000030: 20df 33be b110 0dbe baae a63c 99b3 8d3d
00000040: 8aa1 bc3d 40fc 76bb a54d 623d 2f54 afbe
00000050: 5ce8 073e 1767 f73c b24e 4d3e 50dc c43e
00000060: 99cf 4c3e e491 c83b d506 ca3d 9101 9dbe
00000070: c54b 7e3e b894 733e d092 103f 0931 fabd
-0.1648343 0.15739334 0.0919726 -0.010397007 0.23345728 -0.052434504 0.23520404 -0.108756565
-0.009539185 -0.15972464 0.004605924 -0.1667268 -0.17565584 -0.13775899 0.020346988 0.06919021
0.09210499 -0.0037686974 0.05524983 -0.34243914 0.13272232 0.030200524 0.20049551 0.38449335
0.20001067 0.006120907 0.09864584 -0.30665258 0.24833591 0.237872 0.5647402 -0.12216384

input_edgeconv.graphconv.nn.convnetwork.4.weight f4 [32]
00000000: 4c6b 973f 1bad 883f 66bf 843f b48e 973f
00000010: b786 ae3f 5a06 8d3f 57ef 6f3f 3b5b 613f
00000020: d37a 9b3f 624e 923f b333 593f 73fe 6f3f
00000030: fc7a 913f 3bdd 7f3f 1f55 9f3f 1dff a03f
00000040: 07a2 8e3f c779 863f b5e1 9a3f ee6c be3f
00000050: 699f b23f 6995 943f 6c18 5e3f 35fe 5a3f
00000060: 31d5 503f 743b 893f 44a7 a23f 7b1a 913f
00000070: b44b 863f accc 863f c9a5 893f 771b 4f3f
1.182962 1.0677828 1.037091 1.1840425 1.3634862 1.1017563 0.9372458 0.8802983
1.2146858 1.143017 0.8484451 0.93747634 1.1365657 0.99946946 1.2447852 1.2577854
1.1143197 1.0505913 1.210013 1.4876993 1.3954898 1.1608096 0.86756015 0.8554414
0.81575304 1.0721269 1.2707295 1.1336206 1.0491853 1.0531211 1.0753719 0.80901283

input_edgeconv.graphconv.nn.convnetwork.4.bias f4 [32]
00000000: 60fd 14bf 5d77 1fbf 4466 44be 53ad 3d3e
00000010: 5c8d 403d 9efd 623c d848 9cbe 374c 573e
00000020: 12b0 b13d ce6d 143e 454e 01bf 77dd e43d
00000030: c1eb f43d e7f2 23bf 58ba c2be 7ed5 b0be
00000040: 34e2 fb3d 78b2 18bf 24b7 123d 9480 41be
00000050: 8096 b5bd b991 bf3d 64fb bb3c 87c9 783c
00000060: 3ad5 c0be c337 31bf c46e 853d 7ac6 383d
00000070: 280c 7d3e 22fd f2bd e1f0 a03e 3d70 183d
-0.5819912 -0.6229151 -0.19179636 0.18523149 0.04700981 0.013854412 -0.30524325 0.21025167
0.08676161 0.14495012 -0.50510055 0.111750536 0.11959029 -0.64042515 -0.38032794 -0.34537882
0.12299004 -0.5964732 0.035819188 -0.18896705 -0.08866596 0.09353966 0.02294702 0.015184767
-0.3766268 -0.6922571 0.065152675 0.045111157 0.24711668 -0.118646875 0.31433776 0.037216414

input_edgeconv.graphconv.nn.convnetwork.4.running_mean f4 [32]
00000000: d832 283f 0d77 d9bf 285a f8bf d64f 19c0
00000010: 84bc 78bf 3cf1 81bf 0dee 0740 cdce 5fbf
00000020: 7ae8 32c0 415f edbf 02f2 983f 2bc7 42bf
00000030: fb54 4d3e 3491 dcbe b2ce 9bbf 1bbd ad3f
00000040: 019d 1e3e efb1 bfbe 4135 4a3f 6c5a f73e
00000050: 71a1 1fbf 0769 8abf 4232 6cbf 7654 a5bd
00000060: ec0d b0bd 5a74 823e 07a9 e4bf c82f b2bf
00000070: 0025 a6bf bed4 debf 8e91 bbbf 9f67 7d3e
0.6570258 -1.6989456 -1.9402514 -2.3954978 -0.9716265 -1.0151744 2.1239045 -0.8742493
-2.7954392 -1.8544694 1.1948855 -0.76085156 0.20051949 -0.4307953 -1.2172453 1.3573335
0.1548958 -0.3744044 0.7898751 0.48311174 -0.62355715 -1.0813302 -0.9226419 -0.0807275
-0.085964054 0.25479394 -1.7864083 -1.3920832 -1.2980042 -1.7408674 -1.4653795 0.2474656

input_edgeconv.graphconv.nn.convnetwork.4.running_var f4 [32]
00000000: 3f3c bc3f 0024 493f 49c9 3240 1481 a63f
00000010: f2ff c33f c7b8 d93f 8924 5c40 9f0a b53f
00000020: 49e7 b43f f129 ad3f 734a 7d3f 0fe4 1940
00000030: 5487 2e40 b8c4 c53f 805d a43f b5d3 703f
00000040: b5ac 1d40 0a29 3d40 0f64 0440 6079 aa3f
00000050: 526a eb3f 8fb6 0f40 4247 953f 6809 0640
00000060: 320e 773f a7a6 8e3f 3d3a 0440 2872 cd3f
00000070: 9fb2 863f 0ef2 b83f 8bb5 623f e965 1340
1.4705886 0.78570557 2.7935355 1.3008142 1.5312483 1.7009515 3.43973 1.4143866
1.4133083 1.3528425 0.98941725 2.4045446 2.7270098 1.5450659 1.2841034 0.9407304
2.4636662 2.9556298 2.068607 1.3318291 1.8391821 2.2455175 1.1662371 2.094324
0.96506035 1.1144608 2.0660546 1.6050463 1.0523261 1.4448869 0.8855826 2.303095

input_edgeconv.graphconv.nn.convnetwork.6.weight f4 [32, 32]
00000000: 9b1c 12bf bc0e 153e 2ee0 403e 5431 e0be
00000010: 22b1 dfbe f3ae 813e 6779 433e 58a2 aa3e
00000020: b1d1 1abe aacf 673f bf5c 80bf 17fd 88be
00000030: 9f2d de3d 4b44 83be 3c62 693d 6367 17bf
00000040: 107c e7be 6b05 b7be e87f 553d a347 6dbf
00000050: 0627 3a3d 38e0 2cbd 26cb 5a3e a5cc 813e
00000060: b20a dabe a5eb d93e dc6d 5f3e 0fb8 953e
00000070: 01ea bb3c 155c da3d a8d9 c73e 19de 183e
00000080: 930d 663e 149e 27bf c844 dabe 202f 12be
00000090: 4720 573d d47f 033f da41 04bf ef55 33bf
000000a0: 2f4f 77be 5401 75be f404 3cbe 7610 033f
000000b0: 203a 9dbe fcab 223e 0024 ca3d c537 c93c
000000c0: 04ce 123e 1e9a 533e 2e0a 153d 44c8 b43e
000000d0: d5d0 0e3f 7f10 66be 8077 1e3f 8723 6f3d
000000e0: d2b3 adbe 5ade 3dbf 61f7 7b3e 92ea 093f
000000f0: 2556 33bf 8710 4abd f78a b93e e37c d6be
00000100: bfd4 22bd 6e1e b9be 3fb1 0dbe 45fb 8fbe
00000110: da0c ac3e 23fd 113e e909 2fbf 5648 133e
00000120: a5d8 563e cdab 79bf 6a5d 803e 110b 4fbf
00000130: 82b0 223f 6bbb 96be 3101 9bbe fdc6 883e
00000140: 2bec 2cbd c54a 9f3e 0333 21be 0f77 62bc
00000150: 4141 ffbd b0dd 62be 1b84 d0be 8954 a9be
00000160: e194 3a3f e64c 80be c880 1cbf bf25 933e
00000170: caab 65bd 1f96 eebd c662 57be a4f5 d7be
00000180: ba1d 213f 8b76 20bf cbda 513e 8f23 53bf
00000190: 3a76 ee3c 8056 b83d d6bb bfbc 70bb 2d3d
000001a0: 3f32 893e a122 ec3e 8268 093f b121 1b3f
000001b0: 382c e1be 0727 84be 1b66 6f3e 307f e2be
000001c0: 4cda 80be 6f4e 223e 1d1c a1be c930 cb3e
000001d0: 7f91 3dbd 6441 f0be 3520 893d 7ff5 313d
000001e0: ca0d d7bd 5bdc 2ebf a282 4b3e 5f74 57be
000001f0: 52a0 b73e 9703 db3e fa80 d2be adb1 34be
00000200: 3e53 c43d 814f 23be 61b0 f03e 7d10 a23e
00000210: 8411 99be 8aeb c8bd e7d0 9d3e 4eb8 513e
00000220: 5cee fd3e 258a 2e3e 988e e0bd 496c a93e
00000230: 2009 a7bf 2d85 38be 032a d43e da3b 173e
00000240: 2185 0e3e c987 c43c e55c 72bf a3a8 9fbe
00000250: e0e1 86be bc19 0ebf 52f8 283e bffb a63e
00000260: b8a2 fe3d a2e6 d83d 4412 97be 900e 563e
00000270: e241 1ebe d0f4 a3bd 73f5 bd3e a1de d2bd
00000280: dd62 3d3d c7bf 0bbe f223 e93e 17c8 fe3d
00000290: 1072 0d3e 170b 72be b0b8 f2be 172d 90be
000002a0: c3b8 a83e 1778 b43e 9bef 993e d25a 19bf
000002b0: c08b 15bf bd38 0cbf 20b9 ccbe cadf 59be
000002c0: cca9 a2be 608b c43e 027d 0fbe 1f1f bc3d
000002d0: 7106 eabe 7fa3 8abe d9be 5b3e b60e 96be
000002e0: 2d8b 043f 86e7 bebf aaea b3bd b149 e53e
000002f0: f9eb 65bd 3ee1 1dbe f80f 10be 4ff2 d0be
00000300: c17b 85be 63bd 333f 7e4b 48bf 458b a4be
00000310: 59b5 17bf 15db 8a3e 9c55 11be 044d 233d
00000320: 9aab cbbe a1c6 593e 8f94 cebe b6ae 40bf
00000330: 2772 2bbc c06d fa3e 25b1 c93e 8b65 fabd
00000340: 6360 593f d902 77be 58c2 0a3d 29d9 35bf
00000350: 6def 4d3e 9db0 803e 9e93 0f3e ed7c 4bbe
00000360: 4b9d 27bf 3e2b 183f c135 133e d95f 583e
00000370: df58 983d f6e9 873e ab6b 893e 5560 bb3c
00000380: c669 9abd b091 edbc f7be 2c3e 7635 1bbf
00000390: 0a03 80bf c741 2f3f eb3f ae3e c14a bf3e
000003a0: abea 76bf 2207 6e3e 92a1 3a3e b513 55be
000003b0: 964b 373e bf61 843e 78ca 35bf 69a8 6ebe
000003c0: 8050 29bf 08ea 9fbd af19 8dbe 08cb 1dbf
000003d0: 5c8e eebd 40fa 4dbc ec90 363e c6b0 bd3e
000003e0: 35fe aebd a438 563e df7a 933e 24a1 4b3e
000003f0: 56fc 6dbe 1293 8e3e a30b 34bd 6aa2 163e
-0.570749 0.14556402 0.18835518 -0.43787634 -0.4368983 0.25328788 0.1908928 0.33326983
-0.15119053 0.90551245 -1.0028304 -0.26755592 0.10848545 -0.2563804 0.05697845 -0.5914213
-0.4521184 -0.3574632 0.052123934 -0.92687434 0.045447372 -0.04220602 0.21366557 0.25351444
-0.42586285 0.42562595 0.21819252 0.29241988 0.02293873 0.106620945 0.39033246 0.14928474
0.22466116 -0.65475583 -0.426306 -0.1427579 0.052521016 0.51366925 -0.5166298 -0.70053
-0.241513 -0.23926288 -0.18361264 0.5119699 -0.30708408 0.1588592 0.09870148 0.024562726
0.14336401 0.2066426 0.03638666 0.3530904 0.557874 -0.2246723 0.6190109 0.05838349
-0.33926255 -0.74167407 0.24606086 0.5387355 -0.7005332 -0.049332168 0.36238834 -0.41892156
-0.03975367 -0.36156029 -0.13837145 -0.2812139 0.33603555 0.1425672 -0.68374497 0.14383063
0.20981081 -0.9752777 0.2507127 -0.8087626 0.6355058 -0.29439864 -0.30274346 0.26714316
-0.042217415 0.31111732 -0.15742116 -0.013822331 -0.12463618 -0.2215488 -0.40725788 -0.33072308
0.7288342 -0.2505867 -0.61134005 0.28739735 -0.056072034 -0.11649727 -0.21033773 -0.42179596
0.62935984 -0.6268088 0.20493619 -0.82476133 0.02910911 0.090008736 -0.023404997 0.042415082
0.26796147 0.4612017 0.5367509 0.60598284 -0.4397905 -0.25811026 0.23378794 -0.4423766
-0.25166547 0.15850233 -0.3146676 0.39685658 -0.046281334 -0.4692489 0.06695596 0.043447014
-0.10500677 -0.68304986 0.19874051 -0.21040486 0.35864502 0.42776176 -0.41114026 -0.17645903
0.0958619 -0.15948297 0.47009566 0.31653205 -0.29896176 -0.098105505 0.30823442 0.20480463
0.49595916 0.17044885 -0.109646976 0.33090428 -1.304966 -0.18019553 0.41438302 0.14768925
0.13917972 0.023990529 -0.94672996 -0.31183347 -0.26344204 -0.5550802 0.16500977 0.32613942
0.1243338 0.10590865 -0.29506123 0.20903993 -0.1545482 -0.08005679 0.37101325 -0.10296369
0.04623686 -0.13647376 0.45535237 0.12440508 0.13813043 -0.23637043 -0.4740653 -0.281594
0.32953462 0.3524787 0.30065617 -0.59904206 -0.58416367 -0.54774076 -0.3998499 -0.21276775
-0.3177017 0.38387585 -0.1401253 0.091856234 -0.4570804 -0.27077863 0.21459521 -0.293081
0.51774865 -1.4914405 -0.08784993 0.44782785 -0.056133244 -0.15417954 -0.14068592 -0.40809867
-0.2607098 0.70210856 -0.7824019 -0.32137504 -0.5926109 0.2712027 -0.14192814 0.03986837
-0.3977936 0.21267177 -0.40347716 -0.7526659 -0.010464228 0.48911858 0.39392963 -0.12226399
0.849127 -0.2412218 0.033876747 -0.71034485 0.20110865 0.25134745 0.14021155 -0.19871874
-0.65474385 0.5944098 0.14375974 0.21130313 0.07438826 0.26545686 0.26839957 0.022873083
-0.07539706 -0.029000133 0.16869722 -0.6062845 -1.0000927 0.68459743 0.3403314 0.3736172
-0.96451825 0.23244908 0.18225697 -0.20808299 0.17899927 0.25855824 -0.7101207 -0.23306431
-0.6613846 -0.0780831 -0.27558658 -0.61637926 -0.11648247 -0.012571871 0.17828721 0.3704893
-0.0854458 0.20920044 0.2880468 0.19885689 -0.2324079 0.2784658 -0.04395641 0.14710394

input_edgeconv.graphconv.nn.convnetwork.6.bias f4 [32]
00000000: 9b80 c2be 7702 083e 444d ddbd 85d4 2ebd
00000010: c8a6 273d 95b4 81bd ebbf 8abe bd3a 8abd
00000020: b71f 7f3e 5bbc 06bf e377 653e 2444 8dbe
00000030: 963b 40bd 4e30 a63c afc8 0f3f 2773 80be
00000040: 5b57 bcbd 5aea e1bd f488 efbc 4c1c 943e
00000050: a470 7bbd af8f 203e 6f2a 0c3e fadb 513d
00000060: 89c5 823d 1052 643e 074a 58bc 095a 8b3e
00000070: 68be 223e 80b1 26bd 3d63 763e be26 aabd
-0.37988743 0.1328219 -0.10805753 -0.042683143 0.04093054 -0.063332714 -0.27099547 -0.06749485
0.24914442 -0.5263116 0.22409014 -0.2759105 -0.046931826 0.020286705 0.56165594 -0.25087854
-0.09196349 -0.11031027 -0.029240109 0.2892784 -0.06138672 0.15679811 0.13688062 0.051235177
0.06385333 0.2229693 -0.013201243 0.2721713 0.15892947 -0.04069662 0.24061294 -0.08308171

input_edgeconv.graphconv.nn.convnetwork.7.weight f4 [32]
00000000: 20f9 753f 54cc 933f c3b4 393f 9be7 453f
00000010: 6c06 f53e f71e 2d3f c2bd b13f 3fca 543f
00000020: 271c 803f b0e5 893f badd 853f ffa2 503f
00000030: 9692 b63f 0205 353f bdce af3f 1efb a13f
00000040: 3345 9c3f cf82 7b3f 2476 a13f 6f4f 893f
00000050: bc00 493f 7d87 6f3f 3924 533f 2536 433f
00000060: c0da 543f 47cd 8c3f dfcc 383f 0c5f 5f3f
00000070: f51f 593f fbf0 9b3f b90b 7f3f c6cc b13f
0.9608326 1.1546731 0.72541445 0.77306527 0.47856462 0.67625374 1.3886034 0.83121103
1.0008591 1.077322 1.045829 0.8149871 1.4263484 0.70710766 1.3734967 1.265476
1.2208618 0.98246473 1.2614179 1.0727366 0.78516746 0.93566114 0.82477146 0.76254493
0.83146286 1.1000146 0.7218761 0.87254405 0.8481439 1.2182916 0.9962726 1.3890617

input_edgeconv.graphconv.nn.convnetwork.7.bias f4 [32]
00000000: 20ea 24bf eef1 c6be aa7f 1b3f 89b0 75be
00000010: be5d 753e b303 da3e ec57 edbf f608 e6bd
00000020: 2874 17be c4d2 523c ccf2 89be 5ede e2bd
00000030: f68f 29bf 79a3 f33d 02b2 79be 782e a33d
00000040: 7995 bdbf ccf5 e1bd d411 0abf c421 adbd
00000050: a1dc 313e 21ad f4bc 54e2 1bbf 9700 cebd
00000060: 8eef 92bd 929c 0f3f 15d5 0dbe 85ef ff3e
00000070: 866a 8abe 6c84 0fbc ead5 7abe a2a8 37bf
-0.64419746 -0.38856453 0.60741675 -0.23993124 0.23961541 0.42580947 -1.8542457 -0.11232178
-0.14790404 0.012867633 -0.26943052 -0.110775694 -0.6623529 0.11896414 -0.24384311 0.079678476
-1.481124 -0.1103321 -0.53933454 -0.08453706 0.1736932 -0.02986771 -0.60892224 -0.10058706
-0.07174598 0.5609828 -0.13850816 0.49987426 -0.27034396 -0.008759599 -0.24495664 -0.7174169

input_edgeconv.graphconv.nn.convnetwork.7.running_mean f4 [32]
00000000: 4c88 16bf 14aa a83d 1203 bcbf 2d50 86be
00000010: 6a15 77be f856 97bf 3bde f5be e9ed 99bf
00000020: 6f3a 383e acd1 5cbf fc0b 913e 5a29 ad3e
00000030: b1c5 863f a540 243f 553e 0cbf e326 c7bf
00000040: 3bae f33d a892 65bf 6d5c aabe 0a4e 8fbf
00000050: 2032 17bf c530 15bf 5d03 a03e 64b5 333f
00000060: 0534 383d 682d f93d cfdc 70be 453c cebf
00000070: 9ae6 ed3f aeb0 0dbf e373 363e 5a72 10bf
-0.5880172 0.08235565 -1.4688437 -0.26233044 -0.24129263 -1.1823416 -0.4802111 -1.202573
0.1799104 -0.86257434 0.28329456 0.3382061 1.0529081 0.6416114 -0.5478261 -1.5558742
0.11898466 -0.89676905 -0.3327364 -1.1195691 -0.5906086 -0.5827754 0.31252566 0.70198655
0.044971485 0.12166864 -0.23521732 -1.6112143 1.8585999 -0.55347717 0.17817645 -0.56424487

input_edgeconv.graphconv.nn.convnetwork.7.running_var f4 [32]
00000000: ad8e 3540 f4f0 bf3f 5537 8140 a2f5 7a3f
00000010: b6e2 bc40 94a3 5740 170c cd3f f8cc 1740
00000020: d34d d53f a58b 9c3f 65de c13f 64df d83f
00000030: 1cec 2740 1bd2 1940 3e8d e53f 7af8 d13f
00000040: b386 c63f dfb1 b93f 5c48 ea3f c455 8240
00000050: fd6e 1340 65e0 5a40 a93f df3f 5d37 d23f
00000060: 0e99 d73f 3324 6c40 fa69 ab3f 86c2 0741
00000070: 3030 b03f ce64 4140 8ce2 0340 f8a5 f73f
2.8368332 1.4995408 4.0380044 0.98031056 5.9026747 3.369359 1.6019315 2.3718853
1.6664375 1.2230116 1.5145994 1.6943173 2.623786 2.4034488 1.7933729 1.6403954
1.5509857 1.4507407 1.8303332 4.0729694 2.3036492 3.419946 1.7441303 1.6423146
1.6843584 3.6897094 1.3391716 8.484991 1.3764706 3.0217776 2.0607023 1.9347525

edgeconv1.dynamicgraphconv.nn.convnetwork.0.weight f4 [64, 64]
00000000: 3c32 11bf 76ce 523e 9481 dabe 4e16 ea3d
00000010: d424 8bbd 3ab8 193e 0bb3 833e f95a d33e
00000020: eeed 633e 2292 24bf 7b24 fdbe 4224 09bf
00000030: cb09 5bbd 3162 60be de3f 9c3e 96fd 47bf
00000040: c9c2 993e f57d dbbe 6209 a8be ce50 b3bc
00000050: 5a0c abbd f609 95bd 543b 55be 1dea bd3d
00000060: 9ace 30be 87e8 8d3e b95c 5bbf cfde 9dbc
00000070: f431 39be 574f e1bd a1a0 acbe f13f e53e
00000080: f86c 023e f9d7 893e afc6 e9be 80e0 b83b
00000090: 6a3a 973e e281 91bf 8a69 343f 1a56 1abe
000000a0: f745 323d ca96 3cbe c53d a83e edfe 9e3d
000000b0: a8a6 c4be bbd4 233f cde0 11bd cd7c 143f
000000c0: 1bfa 2e3f 71f7 2abf f058 3cbe d5ee b63d
000000d0: 1baa 823e f56d 5a3f 3792 6cbe 487b 8d3c
000000e0: e80d 9d3e e599 d83c 1b5a 31be 57d6 093d
000000f0: 5ee9 5d3e 7fe7 3dbd 6adf a4be 791c 863f
00000100: 1eb8 5fbe a38f 96bc 66de 95be 7315 99be
00000110: ab6e 04bf b2ea 583e fb62 17bf 1195 29bc
00000120: 5313 02bf 9c1e 42bd e937 78bd 439e 51bf
00000130: ad33 393e 1858 47bf 2c28 85be 8150 05bf
00000140: 4679 bb3e 56ec a13e a5d3 1fbe 7f9a 4b3e
00000150: c4e0 a43d 93dd cabc 1899 9dbe 51e9 1d3e
00000160: 98af ddbe b899 c0be a46a 133d 20eb ae3e
00000170: 1505 6fbd 8011 a63e dbc4 cd3e 4445 813e
00000180: 9e85 b4be eaa7 df3d 4e76 ff3e 0d1d 5a3e
00000190: 81cb 863e 72ec 97bd 0ccc b73d 642f 19bf
000001a0: 18c3 7d3f f6ac e2be 7279 8bbd 9331 68be
000001b0: 6bf3 3fbf e3b8 973e 896f a23e 1474 aebd
000001c0: 28f4 99bf d0bb d4be 4b77 09be 52c4 313e
000001d0: e15f 28bf e7b1 773d ad5a 80be c0a4 72be
000001e0: fa4e 2ebd 7277 9c3e 9b9b 3abf 9225 ccbe
000001f0: c71b 193e def6 f73e a8d5 07bf 5c6e 183d
00000200: 47da 2b3e bad7 86be 9059 e8bd 87d2 4abe
00000210: 2842 a8be 5e10 82be 8b08 e73e 4eb7 77bc
00000220: 80c0 e13d 45da 57be 734b 00be e451 08bf
00000230: ab3d a3be 1888 8dbe a47b 51be 373e 3a3f
00000240: 83fa 8a3f 6a47 22be 8efc a3be d1d1 e9be
00000250: 1869 973e e2b7 14be 3118 36be 3b37 4cbe
00000260: fcaf 97be b36d 20bf d4c0 6fbe 5f9f a3bc
00000270: 7956 14bf e6fc 0ebe aaad 90be f705 35be
00000280: 9ab7 d2be c2f9 b7be bf0b b53e 79ce 1abe
00000290: 36fd a7be 00b2 9b3e bf92 d5be cc44 363e
000002a0: 916d 2abe b145 e0bd 2793 293f 63da 30be
000002b0: f6c2 ee3c 3e6e 1cbf 9958 76be 9d20 b53e
000002c0: 9969 efbe 344c 9abe 3afe d6be d6ba 0c3f
000002d0: 5dc8 fdbe c8cf 213f d1bc eebd ec74 3abd
000002e0: e95c 8d3e 9c07 e7bd a353 0abf 0d5b 5bbe
000002f0: 9ae2 653d 7b16 5dbe 382d 4cbc 2b0e ac3e
00000300: 4970 3e3e e863 93bf 6a4d e8bc 01e3 963e
00000310: fc65 d33c 5dd4 febe 2b8a e73d 1e3f fbbd
00000320: c343 313e 48f3 70bd 5c06 16bf d103 a4bd
00000330: e9fb c7be 6a69 d23e 3209 0bbe f48d 4dbe
00000340: 5757 ef3e c1db 363f f47c 203f 94de 043e
00000350: d9bb 36be 6a10 cfbe d06c 243e 6f5b f43e
00000360: 88dc ebbd f853 9c3e 59dc a43e 8399 8b3e
00000370: 8a67 28be 5af9 dd3e 8fa7 eb3e b49f 0ebf
00000380: 0851 60bf b7e6 983e b484 df3e 3839 823c
00000390: 3f92 20bf 2f3c 273e 8702 9fbe a031 dfbb
000003a0: c6c2 c33e 59a0 9ebe 67fe 9b3e 78a2 95be
000003b0: 5a81 333e d2f5 aebd e871 e43e eddb 3c3c
000003c0: e8d8 07be 8b54 17bf 9463 983e 81f3 973d
000003d0: 95b2 ae3e 53b7 513d 28ad 6b3e 91fc 92bc
000003e0: 3ace 903e 9b54 3ebf d469 c7bc 7250 bebe
000003f0: a188 dcbe 08d8 88be 9d43 78be 3adf 7cbd
-0.56717277 0.20586571 -0.42676985 0.114300355 -0.06794134 0.15011683 0.25722536 0.41280344
0.22258732 -0.6428548 -0.49441895 -0.5357095 -0.053476136 -0.21912457 0.30517477 -0.78121316
0.30031422 -0.42869535 -0.3281966 -0.021889117 -0.08351965 -0.072772905 -0.20823413 0.09273169
-0.17266312 0.27716467 -0.8568836 -0.019271282 -0.18085462 -0.11001461 -0.337163 0.44775346
0.12736881 0.26922587 -0.45659396 0.005641997 0.29536754 -1.1367762 0.7047354 -0.15071908
0.043523755 -0.18416896 0.32859626 0.07763467 -0.384084 0.63996476 -0.035614777 0.5800293
0.6835038 -0.66783816 -0.18393302 0.08932272 0.25520405 0.8532403 -0.23102652 0.0172707
0.30674672 0.02644057 -0.17319529 0.033651676 0.21671054 -0.04636335 -0.322017 1.0477439
-0.21847579 -0.018379038 -0.2927124 -0.29899177 -0.51731366 0.21183279 -0.5913541 -0.010350482
-0.50810736 -0.047392473 -0.060600195 -0.81882113 0.18086119 -0.77868795 -0.2600721 -0.52075964
0.36615962 0.31625623 -0.1560808 0.19883154 0.08050683 -0.024763858 -0.30780864 0.15421034
-0.4329803 -0.37617278 0.035990372 0.3416376 -0.058354456 0.32435226 0.4018925 0.25248158
-0.35258192 0.10920699 0.49894947 0.21300144 0.26327136 -0.07418145 0.08974466 -0.5983794
0.99125814 -0.44272584 -0.06810273 -0.22675161 -0.749808 0.29633245 0.3172572 -0.08518234
-1.2027636 -0.4154954 -0.13424413 0.17360047 -0.657713 0.060472395 -0.2506918 -0.2369566
-0.042555787 0.3055988 -0.72893685 -0.39872414 0.14952002 0.48430532 -0.5306039 0.037214622
0.16782485 -0.2633646 -0.11345208 -0.19806872 -0.32862973 -0.25403112 0.45123705 -0.015119387
0.110230446 -0.21079357 -0.12528782 -0.53249955 -0.31882986 -0.27642894 -0.20457321 0.7275118
1.08577 -0.15847555 -0.3202862 -0.4566789 0.29572368 -0.1452327 -0.17782666 -0.19942944
-0.29626453 -0.6266739 -0.23413402 -0.019973455 -0.57944447 -0.1396366 -0.28257495 -0.17678057
-0.41155702 -0.35932738 0.35360524 -0.15117826 -0.32810372 0.3040924 -0.4171352 0.17799681
-0.16643359 -0.109507926 0.6624016 -0.17270808 0.029145699 -0.61105716 -0.24057235 0.35376444
-0.46760252 -0.30136263 -0.41990834 0.5497259 -0.49566928 0.63207674 -0.116571076 -0.04552166
0.27609947 -0.11280748 -0.5403387 -0.21421452 0.056124307 -0.21590607 -0.012461953 0.3360456
0.18597521 -1.1514864 -0.028357226 0.29470065 0.025805466 -0.49771395 0.1130565 -0.12267898
0.17311005 -0.05882576 -0.58603454 -0.080085404 -0.3905938 0.4109605 -0.13577726 -0.20073682
0.46746323 0.7142907 0.62690663 0.12975532 -0.17845096 -0.4044221 0.16057134 0.47726008
-0.115166724 0.30532813 0.32199362 0.27265558 -0.16445747 0.43354303 0.46026275 -0.5571244
-0.87623644 0.2986352 0.43655932 0.015896425 -0.62723154 0.16331552 -0.31056616 -0.0068113357
0.38234538 -0.3098171 0.3046753 -0.29225516 0.17529812 -0.0854298 0.44618154 0.011527044
-0.13266337 -0.5911338 0.29763472 0.074194916 0.34120622 0.051200222 0.23015273 -0.017942699
0.28282338 -0.7434785 -0.024342455 -0.3717075 -0.4307299 -0.2672732 -0.24244542 -0.061736323

edgeconv1.dynamicgraphconv.nn.convnetwork.0.bias f4 [64]
00000000: ec07 1b3d f415 3e3e 1a18 6d3e 29dc 9dbd
00000010: 5ce5 43bd a3a2 40bd 810d 0ebe b859 1e3d
00000020: 3ecd 37be da21 f43b 0562 eebe 0372 703d
00000030: d256 303e 16ac eebd 6864 8b3d 0e34 5e3c
00000040: 99cb 41bd 5ded b23e 3e8f dbbd 158f a9bd
00000050: 7a5f 86be 129c ea3c e483 e33c b790 883c
00000060: 5784 023d e6c9 04be 019d 86bb 5375 443d
00000070: 6605 25be 2656 3d3d c0b4 8c3d 6094 ef3d
00000080: 58ce 143d 73bd d33d 0688 a3bd 1505 9d3c
00000090: 6b14 443c 79c8 003e 2795 953d 0c91 9ebd
000000a0: 5e23 f9bb 618e 763e 1db6 093d ff8f 61be
000000b0: d941 3a3d 65fc c93d 4664 823e 869d cd3d
000000c0: 4e46 733e 197d 253d a84e 28bb d92c 03be
000000d0: bd03 2fbd 4401 983d 18bf 25be 3e39 debd
000000e0: a67a a2bd a476 c0be 9bad 48be ed43 8c3e
000000f0: bf81 8abc deea a0bd 43c2 f2bb b5f0 e53d
0.03784935 0.18563062 0.23153725 -0.07708008 -0.047826156 -0.047030102 -0.13872339 0.03865978
-0.17949387 0.0074503245 -0.46559158 0.05870248 0.1722062 -0.116539165 0.0680626 0.0135622155
-0.047313306 0.3494672 -0.10720681 -0.08279244 -0.26244718 0.028638873 0.027772851 0.016670568
0.03186449 -0.12967643 -0.004108072 0.04796345 -0.1611534 0.046224736 0.06870413 0.11698222
0.036329597 0.10338869 -0.07984929 0.019167462 0.011967759 0.12576474 0.07303839 -0.07742509
-0.007603093 0.2407775 0.033620942 -0.22027586 0.045472953 0.098625936 0.25467128 0.10039811
0.23757288 0.040402506 -0.0025681648 -0.12810077 -0.042728174 0.074221164 -0.16186178 -0.10850762
-0.079335496 -0.37590516 -0.19597475 0.27395573 -0.01690757 -0.07857297 -0.0074084117 0.11227552

edgeconv1.dynamicgraphconv.nn.convnetwork.1.weight f4 [64]
00000000: ff99 8e3f b26d a93f 4a90 873f 89c6 643f
00000010: 2253 963f 3651 553f 6435 823f a0a2 873f
00000020: dabe 8e3f e0bf 423f 9f04 c43f e820 893f
00000030: 75a6 773f 59e9 a03f c78a 853f 9455 493f
00000040: 3793 a33f 7ee1 9c3f e7f6 9b3f 7ca4 883f
00000050: 0cde 9e3f 21c5 3f3f 4e32 813f a40d 723f
00000060: 3ddb a13f 6ae6 843f 26f9 8c3f f1bb 6c3f
00000070: 0f6c 943f 5929 833f 5603 b53f 52a0 693f
00000080: e6d1 463f a09a 913f 18fc 6c3f c861 873f
00000090: c8c2 3a3f 1c5e 633f 4223 363f 3fcd 5e3f
000000a0: d92a 6f3f 9b59 4e3f a2ff 453f 545a 8b3f
000000b0: ad7e 6c3f c30a 503f 57f4 a13f 1751 7e3f
000000c0: 3a56 663f aa82 4f3f e3de 903f 22da 963f
000000d0: f53a 873f 7500 583f c7bc 883f 3f7a 603f
000000e0: 3678 883f 0844 a83f 345a 6b3f 0757 753f
000000f0: a0d2 783f 0dd6 8f3f f628 7c3f 2478 813f
1.1140746 1.3236601 1.0590909 0.8936544 1.174412 0.83327043 1.0172544 1.0596504
1.1151993 0.7607403 1.531391 1.0713167 0.9673837 1.2571212 1.0432976 0.78646207
1.2779301 1.2256315 1.2184724 1.0675197 1.2411513 0.7491017 1.0093477 0.94552064
1.2645031 1.0382817 1.1013534 0.92474276 1.1595477 1.0246993 1.4141643 0.91260254
0.7766403 1.1375313 0.92572165 1.0576715 0.7295346 0.88815475 0.7114755 0.8703193
0.93424755 0.8060548 0.7734319 1.0886941 0.9238079 0.8126642 1.2652692 0.99342483
0.8997532 0.8105875 1.131802 1.1785319 1.0564867 0.843757 1.068261 0.8768653
1.0661685 1.3145761 0.91934514 0.9583592 0.9719639 1.1237198 0.985 1.0114789

edgeconv1.dynamicgraphconv.nn.convnetwork.1.bias f4 [64]
00000000: b123 8ebe 7bb9 8fbe 4d09 8d3e b519 9bbe
00000010: b463 2c3e ff23 49bf e30c 15bf fa5b 953d
00000020: 279a a03e 5827 bbbe 9a07 193e 6d64 b7be
00000030: c6c3 b9be 1940 0abf 21da 52bd 6c77 d4be
00000040: e8d4 a0be 5ec7 d03d 6ba7 d3be 583d 12bf
00000050: 8537 6dbe 577c 3abf 5d66 a9bd bfee 853d
00000060: 8d64 5d3d a10c 06bf f2ae 7abe 9741 0bbf
00000070: 93d5 23bf 2ea9 bdbe 157a 253e e6c8 23bf
00000080: 2762 03bf 7373 75be e28a 14bf a31d e2be
00000090: f945 91be d6fe 85be 2aff 1fbf 61d1 e0bd
000000a0: 965c 07bf 80ea 0c3d 69d5 a5be 5ebc 0bbf
000000b0: 1e3d c73e 86f4 1fbf f413 9aba c92c 23bf
000000c0: f05c b93d 9102 1ebf 10d5 b0be a4cd c83c
000000d0: bb75 9bbe a20e eabe 6783 2ebe c042 83bf
000000e0: 0a28 43bf 91bc cb3e 33d2 dfbe 825e 9dbd
000000f0: 94fc 0fbf bb38 62be f661 e5be 5e50 aebd
-0.27761605 -0.28071198 0.27546158 -0.3029305 0.16834909 -0.7857055 -0.5822279 0.07292934
0.3136761 -0.36553454 0.14944306 -0.35818806 -0.36282176 -0.54004055 -0.051477555 -0.41497362
-0.31412435 0.10194276 -0.41338667 -0.57124853 -0.2316571 -0.7284598 -0.08271477 0.06539678
0.05405097 -0.5236302 -0.24480799 -0.5439696 -0.63997763 -0.37043136 0.16159852 -0.6397842
-0.51321644 -0.23969822 -0.5802442 -0.44163236 -0.28373697 -0.26170987 -0.62498724 -0.10977436
-0.5287565 0.034403324 -0.32389382 -0.545843 0.38913816 -0.6248249 -0.0011755214 -0.6374021
0.090509295 -0.61722666 -0.34537554 0.02451212 -0.3036326 -0.4571429 -0.17042314 -1.0254745
-0.7623297 0.39792302 -0.43715057 -0.076840416 -0.5624478 -0.22091953 -0.448013 -0.085114226

edgeconv1.dynamicgraphconv.nn.convnetwork.1.running_mean f4 [64]
00000000: 0b34 acbf ee3a 63bf 7e1e 92bf afe3 943e
00000010: 6795 893f a799 bbbe a5f7 07bf 3145 f13e
00000020: d8ce 31c0 de8c 9b3f 6aca 07c0 761d 9a3d
00000030: d95c 793e b0cc 883e 6880 6dbf 3b2e 293e
00000040: ec2e 4bbf 64cf 20bf a277 1bbd f68e 9bbf
00000050: 0e07 0dc0 d90a b33f 5804 a4bf 7b34 dfbe
00000060: bda8 14bd d709 0fc0 558f ccbe e86f 0e3f
00000070: 085f d9be 53a3 cb3e c769 e6be 2168 b13e
00000080: eb42 8a3e dfa4 02bf 44de a2bf 028b 30bf
00000090: 7511 183e 5f1d 61bf 0379 ddbd 99b9 b9be
000000a0: 4b77 a4bf e3ba 0dbf e1b5 e0bf 4b25 77bf
000000b0: 9291 e4bf 7d7a 023f 0df8 1b3e d200 43bf
000000c0: 57a4 a43f 1143 6a3f 3a18 023e f1d0 f5bf
000000d0: dd13 aa3f 907b bd3f 6558 c6be 0e38 843f
000000e0: fef6 75be ee5e 0ec0 f646 8e3f ec79 1540
000000f0: d48c 493f b0c2 aebf 7a5b 1cc0 a625 0b3f
-1.3453382 -0.88761795 -1.1415555 0.2907996 1.0748719 -0.36640665 -0.5311225 0.471231
-2.7782497 1.2152364 -2.1217294 0.075251505 0.24351825 0.26718664 -0.9277406 0.16521542
-0.7936847 -0.6281645 -0.037955888 -1.2153003 -2.2035556 1.3987685 -1.2813826 -0.43594727
-0.036293734 -2.2349756 -0.39953104 0.55639505 -0.42455316 0.39773044 -0.45002577 0.34649757
0.2700418 -0.51032823 -1.272408 -0.6896211 0.1485041 -0.8793544 -0.10814097 -0.36274412
-1.2848905 -0.5536329 -1.7555505 -0.9654128 -1.7856925 0.5096815 0.15231343 -0.76173127
1.2862653 0.91508585 0.12704554 -1.9204389 1.3287312 1.4803333 -0.38739315 1.0329607
-0.24020001 -2.224544 1.1115406 2.3355665 0.7873051 -1.3653164 -2.4430833 0.5435432

edgeconv1.dynamicgraphconv.nn.convnetwork.1.running_var f4 [64]
00000000: 55d5 543f b151 c93f de33 883f 48a5 6140
00000010: bdb5 3640 3d8b 4c40 3464 3b3f f0b3 8b40
00000020: 0016 6a40 91c3 9d40 a0de 323f d14b e93f
00000030: 5c07 7c3f ad14 333f 4abd 843f 11d1 8c3f
00000040: b7a9 cd3f 9e56 b43f d60b 483f 4d3b 633f
00000050: c3c6 a13f 6150 5240 3fe8 0b40 c593 9a3f
00000060: 2f35 bc3f e583 1940 95df e83f 2b33 fd3f
00000070: c9d8 e03f 50a8 823f d145 cf3f 9f32 7b3f
00000080: 5d55 3940 edf5 463f 1dfe 8d3f 7b70 3a40
00000090: a1ad 723f 328a b240 0407 bb3f 8119 f73f
000000a0: 8987 163f 3436 4740 f0d2 4340 d0a5 843f
000000b0: 3ce3 b63f 0cf0 a43f 7740 7d3f e490 2340
000000c0: 9fd5 3f3f d49a 8b3f 4526 853f 7355 7b3f
000000d0: 2f2d f43f c5ab ca3f 6424 973f 7bd7 923f
000000e0: 9a0d 3940 04b2 1040 8157 c63f ddf9 b43f
000000f0: 0c83 2e40 89b4 443f 701b fd3f 1ed9 a03f
0.8313802 1.5728055 1.0640829 3.525713 2.8548424 3.1959984 0.7319977 4.365715
3.6575928 4.930123 0.6987095 1.8226262 0.9844873 0.69953424 1.0370266 1.1001302
1.6067418 1.4088933 0.7814306 0.8876236 1.2638782 3.286156 2.1860502 1.2076346
1.470373 2.3986752 1.8193232 1.978124 1.7566158 1.0207615 1.6193181 0.98124117
2.8958352 0.77719 1.1093174 2.9131153 0.94796187 5.5793695 1.4611516 1.9304658
0.5880056 3.1126833 3.0597496 1.0363102 1.4288096 1.2885756 0.9892649 2.5557184
0.74935335 1.0906625 1.0402304 0.9817726 1.9076289 1.583367 1.180798 1.147201
2.8914552 2.2608652 1.5495454 1.4138752 2.7267485 0.76837975 1.9773998 1.2566259
